Project2Agent/checkpoint_critic (1).pth (torch_old, 111533 bytes, 7 tensors)

fc1.weight f4 [50, 33]
000000 74 0b 15 be 32 a0 25 be 2c 2a ae 3d 90 2a c0 3d
       -0.1455515 -0.16174391 0.085041374 0.09383118
000010 a2 12 14 bd 8d 31 2b 3e d5 e6 d8 3c e6 9d 2e bc
       -0.036150582 0.16718121 0.026477257 -0.010657763
000020 35 07 d5 bd f2 e1 1c 3e 5a 2d e1 bc 05 30 d5 bc
       -0.10401765 0.15320566 -0.027487446 -0.026023874
000030 22 1d 90 bd a2 25 58 3e 00 c0 3e 3e b3 c8 d8 bd
       -0.07036807 0.21108106 0.1862793 -0.10585155
000040 e2 73 8f bc d3 28 ac bd 65 45 23 bd b0 91 5f bd
       -0.017511312 -0.08406224 -0.0398611 -0.054582298
000050 5e 22 c3 bd 00 b7 1b bd b7 29 99 3c 7d a0 0e 3d
       -0.095280394 -0.03801632 0.018696649 0.034821022
000060 51 24 a8 3d a6 1f 13 3d 02 1e 93 bd f6 43 5d be
       0.08210052 0.035918854 -0.07183458 -0.21607956
000070 eb af c4 bc b8 c6 de 3c 80 71 df 3e 7c c6 b7 3d
       -0.024009665 0.027194366 0.4364128 0.08973405
000080 48 dc 18 40 e0 32 c1 3d f1 05 05 3d 98 d5 03 bf
       2.388445 0.09433532 0.03247637 -0.51497793
000090 5a 47 20 3b d5 3a d6 bc 96 90 06 bd 0a df 1f 3e
       0.0024456591 -0.0261511 -0.03285273 0.15612426
0000a0 98 dc 29 3b 2c b2 0e 3e f5 47 53 3e 22 7f 3d 3c
       0.0025918838 0.13935155 0.20632918 0.011565955
0000b0 ed 9f e3 3c b4 14 81 bc 48 e0 34 bd e1 4c 91 3d
       0.02778622 -0.015756942 -0.044159204 0.070947416
0000c0 3f 01 1d 3f 66 b2 12 3e 21 41 31 3c b5 ad 28 3d
       0.61330026 0.14325866 0.010818751 0.041181285
0000d0 0a f1 4e bd 79 43 b9 3c 27 3f 0e 3c ca 9e a0 ba
       -0.05052284 0.022615181 0.008682049 -0.0012254354
0000e0 27 ff ed bd 57 c8 9f 3c 04 cc 59 3e e1 db 88 bd
       -0.11620932 0.01950471 0.21269232 -0.066825636
0000f0 00 f6 95 3e fb 3e f4 be d4 9b 9a 3d 3d dd 77 be
       0.29289246 -0.477043 0.07549253 -0.2420549
000100 04 88 76 3d 62 c7 aa bf 8d 18 1c 3e 13 04 44 3f
       0.06018831 -1.3342097 0.1524374 0.76568717
000110 e8 fb 3c 3c 11 e3 62 3d fc 0a 8e bc 48 6b b7 3d
       0.0115346685 0.05539233 -0.017339222 0.08956009
000120 46 3e db 3c 90 f6 9d bd 66 ef 24 3e 6b ba d2 bd
       0.026763093 -0.07713044 0.16106948 -0.10289463
000130 f3 44 28 3c cf f5 a0 bc e9 9f 50 bc 79 e3 7b bd
       0.010270345 -0.01964846 -0.012733438 -0.06149623
000140 84 25 49 bf 4d 13 7e bd fa 97 5f 3d 99 31 28 bd
       -0.7857287 -0.062030125 0.054588296 -0.041062925
000150 53 8a 1f 3d 93 61 94 3c e8 d1 5b bb cb 24 4a 3c
       0.038950276 0.018112933 -0.0033541862 0.012337874
000160 eb 23 a7 bc 6e c3 ea 3b 86 87 50 be 07 9f f8 bc
       -0.02040287 0.0071644103 -0.20364198 -0.030349268
000170 ee cf 09 3d 75 a5 db 3d 60 a4 e2 3c 1c 67 c0 bd
       0.033645563 0.10724918 0.02766627 -0.093946666
000180 5a f7 6b be 0b c0 94 bd 4a a7 a2 bc e5 fa 44 be
       -0.23043576 -0.07263192 -0.01985516 -0.19236334
000190 ed db 88 3e 03 1d fc bc f7 07 8f be 41 9c fd be
       0.2673029 -0.030775553 -0.27935764 -0.49533275
0001a0 55 db 91 3e 25 02 3b 3e ec 33 6f 3e 0c de 3f be
       0.2848765 0.18262537 0.2335965 -0.18737048
0001b0 fb 61 6f 3e 5f 56 0c bc fc 0a 8a 3e 7a 67 1f be
       0.2337722 -0.008565514 0.26961505 -0.15566817
0001c0 ac 15 1d 3e 7a f6 4f 3d 24 a8 86 bd e2 80 ff 3e
       0.15340298 0.050772168 -0.06575039 0.49903017
0001d0 b3 69 88 3d 23 97 f7 3d 44 48 d6 3c d7 3b 83 be
       0.066607855 0.12089374 0.026157506 -0.25631592
0001e0 f3 d1 69 be 6e 88 7e 3e e9 94 be 3d 5f ca f1 bd
       -0.22833996 0.24856731 0.09305746 -0.11806177
0001f0 00 2a a5 bc 0d 51 f8 3d cb d5 15 3f 1b fa 86 bd
       -0.020161629 0.12124834 0.5852935 -0.065906726
000200 a6 5b 97 3d 6f 6e 17 bf 3a 7a e7 3d c3 44 3d be
       0.073905274 -0.59152883 0.1130261 -0.18483262
000210 1b 89 b8 3e 7b 7b 91 3e 1c f2 fd 3e 9d ba 4e bc
       0.36042103 0.2841452 0.49598777 -0.012617734
000220 44 fe 3c 3d 84 93 e6 bd 38 50 e8 3c 66 c2 b3 bc
       0.046140924 -0.11258605 0.028358564 -0.021943282
000230 b8 48 5a bd 31 e7 30 bd 79 be 2a 3d b3 a2 90 3d
       -0.053292006 -0.04318923 0.041685555 0.070622824
000240 a5 0c 6e bb 5d 91 06 bf 62 cb 50 be f8 26 09 bf
       -0.0036323455 -0.52565557 -0.20390084 -0.53575087
000250 f0 ed 1f 3d 9a e2 99 3c 12 45 7b 3d 6c 96 82 3c
       0.039045274 0.01878481 0.061345167 0.015940867
000260 88 7f d7 3b da 4c 1a 3d c0 0b c4 bd a6 00 ad bd
       0.006576482 0.037670948 -0.09572554 -0.08447389
000270 92 64 92 bd c9 71 42 bd ab 35 9a 3e 50 e3 6c bd
       -0.071480885 -0.047471795 0.3011907 -0.05783397
000280 b7 c9 90 3e 60 f3 bc bb 4a 38 75 3d 60 93 6d 3d
       0.28278896 -0.0057663172 0.059868135 0.058001876
000290 30 88 bc bc b9 6e 80 bd 8b 88 8a 3d da 9d ce 3d
       -0.023014158 -0.06271119 0.06764325 0.100887015
0002a0 90 29 9a bc 4f f2 c9 bd cf d2 39 be d3 ab 16 bd
       -0.018818647 -0.0986067 -0.18146823 -0.036784958
0002b0 58 1b 4d be 88 32 1a be 9e 18 29 bc a7 6f 51 be
       -0.20029962 -0.15058339 -0.010320811 -0.20452748
0002c0 7d 89 94 3d 07 95 10 3e 06 29 86 be dc ef b3 3d
       0.07252786 0.1411935 -0.26203173 0.08785984
0002d0 9a 7b 2c 3c 2d 83 17 bc b8 99 6b be 87 bf 95 3e
       0.010527516 -0.009247583 -0.23007858 0.29247686
0002e0 c0 43 1d 3c 94 ff a8 3d 34 50 ef 3c 82 73 89 3d
       0.009598672 0.08251873 0.029213049 0.067114845
0002f0 ea 30 06 be 05 c2 12 bd 13 95 00 be 9b d8 cd 3d
       -0.13104597 -0.035829563 -0.12556867 0.1005108
000300 5f db 85 3e a2 7f 8f 3e 28 16 04 be 45 ea a4 be
       0.2614393 0.28027064 -0.12899077 -0.32209983
000310 96 b3 e0 3d 6c 40 08 3f 44 1c 56 be 0b 0b 4d 3e
       0.10971753 0.532233 -0.2090922 0.20023744
000320 35 a1 eb 3e 81 85 6c be 56 80 ec bc 95 65 1e bf
       0.4602143 -0.23097803 -0.02886979 -0.6187375
000330 ea 32 c9 3e a9 b0 a2 3d 3b 04 98 be 29 8a 0a 3d
       0.39296657 0.079438515 -0.29690728 0.033823166
000340 e8 9d 73 3d 5c 84 80 be d9 97 6d 3d 4f 9e 9c 3e
       0.059476763 -0.25100982 0.05800614 0.3058953
000350 45 b0 83 be bb a7 17 be 61 46 a9 bd 6a 73 38 be
       -0.2572042 -0.14810078 -0.08265377 -0.18012777
000360 2c e5 e3 3c 20 da ee 3c cf 01 82 3d 5b 35 3a 3e
       0.027819239 0.029156744 0.06348001 0.18184416
000370 ed b9 c2 3c 27 e1 c0 bd 29 f7 a0 3d 51 ca b9 bd
       0.023770297 -0.094179444 0.07859642 -0.09071792
000380 f9 8a 75 be ab 53 03 3e ee b9 44 be 26 54 f2 3d
       -0.23978795 0.12824886 -0.19211552 0.11832456
000390 11 ec 42 be 10 4b cb 3c 83 fb 51 bf 63 c6 6e bc
       -0.19035365 0.024816066 -0.820244 -0.014573666
0003a0 cf 54 65 3e 51 d2 73 bd f7 48 61 be 9f c3 0d be
       0.22395633 -0.059526745 -0.2200049 -0.13844155
0003b0 b2 65 8e 3e 63 c8 34 bd c2 28 2e 3d ee 61 fe 3d
       0.27811962 -0.044136416 0.04251934 0.12421022
0003c0 63 ca 17 3e ce 02 26 3d 29 7d c8 bc bf 8a c7 bd
       0.14823298 0.04053002 -0.024473744 -0.097432606
0003d0 4d 95 0c be 7f bf a7 3d 2d 51 b5 bd d4 11 7b 3d
       -0.13728829 0.08190822 -0.08853374 0.0612963
0003e0 ff 70 3e 3e 1c 2b a9 3e dc f9 39 be 50 f6 60 bd
       0.18597792 0.33040702 -0.1816172 -0.054922402
0003f0 f9 00 0c be e1 24 a9 bd f8 d3 8a be 44 36 2c 3d
       -0.13672246 -0.08258987 -0.27114844 0.04204394

fc1.bias f4 [50]
000000 c9 ef b9 3e 8a 30 9b be 54 ca a7 be 1f f7 51 bf
       0.36315754 -0.3031047 -0.32771552 -0.820177
000010 7c 14 a9 3d 0a bf 3c be 2c 1f 16 be b9 d0 03 bf
       0.0825586 -0.1843225 -0.14660329 -0.5149036
000020 40 0d 5b 3d b3 d4 53 bd 07 da 1f bf 1d dd 0a bf
       0.053479433 -0.051716518 -0.6244206 -0.5424364
000030 a3 22 0c bf b2 5d 56 be 74 c4 b6 be 0d eb 2c be
       -0.5474035 -0.2093418 -0.35696757 -0.1688654
000040 14 e4 4b bf ca fb 98 3e d1 cd 34 be e7 fa d0 3d
       -0.79644895 0.298796 -0.17656638 0.10204106
000050 15 28 05 be 78 3d 4f bd 73 6d 9f bd d4 09 f1 3d
       -0.13003571 -0.05059573 -0.07784548 0.11769453
000060 7e d1 da be 79 56 92 be 41 a8 15 3e 3e 6d fa be
       -0.42737955 -0.28581598 0.14614965 -0.4891147
000070 ae 0f 07 bf 53 71 36 bf 0d 3b 26 bf 43 6e d5 be
       -0.527583 -0.7126667 -0.64933854 -0.41685686
000080 33 81 2a bd 72 8d 53 be e8 c4 97 be 70 a3 3b bd
       -0.04162712 -0.20659426 -0.29642415 -0.045810163
000090 1c 9b 09 bf 9a 37 a0 bd d8 17 42 be 6b fb 1c be
       -0.53752303 -0.07823105 -0.18954408 -0.15330283
0000a0 19 9e 8e 3e ec 16 47 bd 7f 1d 8d be cc 75 e7 be
       0.27854994 -0.048605844 -0.27561566 -0.4520706
0000b0 19 f2 56 be c3 73 3e 3e f6 27 fc bd 2d a8 96 3e
       -0.2099079 0.18598847 -0.123123094 0.29425183
0000c0 e9 8f 2a 3d 2c 31 57 3e
       0.04164115 0.21014851

fc2.weight f4 [100, 54]
000000 47 e1 56 be f2 ec a0 bd b0 25 d1 bd 57 65 59 bd
       -0.20984374 -0.07857694 -0.102122664 -0.05307516
000010 90 be 09 3d 85 65 d5 bd 0c e8 47 3d 5b 47 bb 3c
       0.033629 -0.10419754 0.04880528 0.022861173
000020 bc 7a bb bd 86 2c cb bd a8 1c b5 3c f0 04 bc bd
       -0.09154269 -0.099206015 0.02210839 -0.09180629
000030 f8 72 9b 3b 94 68 d6 bd cc 71 1a be 5b 36 33 be
       0.00474393 -0.104691654 -0.15082473 -0.17501204
000040 26 65 1f be fe 7f d7 bc ef 4c 05 be 99 91 48 3d
       -0.15565929 -0.026306149 -0.13017629 0.048966978
000050 69 75 23 be 79 fb b1 3c d8 6d 9d bd 2f 9b c0 3c
       -0.15962757 0.021726357 -0.07686967 0.023511497
000060 d6 84 85 bc db 45 43 bd 1b b5 46 bc 61 94 9f 3d
       -0.016298693 -0.04767404 -0.01212814 0.07791973
000070 d1 d0 df bd fa e7 49 be 71 65 b2 3c 24 0f 6a bd
       -0.109285004 -0.19717398 0.021776887 -0.057143345
000080 c0 5f 54 be bb b7 ac 3d f8 5e cd bd 78 78 29 be
       -0.2073965 0.08433481 -0.100278795 -0.16549861
000090 91 27 43 3d e6 4a 8d bd 02 ea 9e bd 6b 99 83 bd
       0.047645155 -0.06899051 -0.07759477 -0.064257465
0000a0 aa aa 49 3c 8d cb 41 bd 25 fc 2e be 52 32 99 3d
       0.012308756 -0.04731326 -0.17088373 0.07480301
0000b0 26 92 28 bd f3 05 23 3d b7 c0 74 be 9f 02 c6 bd
       -0.041155003 0.039800595 -0.2390164 -0.09668469
0000c0 70 b0 75 3c 7a 92 d3 bd 84 59 03 bd 59 d3 0d bd
       0.014995679 -0.103306726 -0.03206779 -0.034625385
0000d0 97 eb 62 bd 4b a4 26 3e 65 ca b3 be b4 fd e0 bd
       -0.055400457 0.1627361 -0.35115352 -0.1098589
0000e0 60 82 b7 bc 3c a3 03 be 7c 79 0c 3e b5 83 97 be
       -0.022401035 -0.12855238 0.13718218 -0.29592672
0000f0 43 b3 de be 9f 46 d8 bd 02 99 f2 bd ca 5a e3 bd
       -0.4349614 -0.10560345 -0.1184559 -0.11101301
000100 8a 8e 3c be bb 48 06 bf 9a 46 76 be 64 3e 56 be
       -0.1841375 -0.5245473 -0.2405037 -0.20922238
000110 71 bd 63 be 30 93 04 3e 96 00 0d be 93 35 0d bf
       -0.22240235 0.12946773 -0.13769755 -0.5515987
000120 c4 d8 dc be 5c 11 cd bd 77 a7 be bd c7 e2 32 bf
       -0.4313413 -0.10013077 -0.09309285 -0.69877285
000130 1d ae a9 be be 38 ed 3e c9 cd de be 5d 27 87 3c
       -0.3314065 0.46332353 -0.43516377 0.016498262
000140 03 59 81 be 7b 55 69 bf fd b3 30 be f5 82 73 be
       -0.25263223 -0.9114606 -0.1725616 -0.23780425
000150 f1 1e 36 3d a1 3f 43 bd cd ab 12 3e 67 87 ac be
       0.0444631 -0.047668103 0.1432335 -0.33697054
000160 52 f2 7e be f5 ee 4c 3e ce 0c 90 bd b8 b6 78 3e
       -0.24897125 0.2001303 -0.07033692 0.24288452
000170 7d 4f 4f be 06 6a 2f be 82 14 50 be 49 22 43 3e
       -0.20245166 -0.17130288 -0.20320323 0.19056047
000180 46 66 ef bc b3 9e 45 3a 2c 13 e3 be cf a0 b2 3d
       -0.029223572 0.00075386016 -0.44350564 0.08722078
000190 7f e8 c8 3d d9 9e 69 be 23 6e 24 be 0e 33 a3 be
       0.0980997 -0.22814502 -0.16057639 -0.3187489
0001a0 90 0c d9 3c 67 f2 cb 3c ed bd ab bd 9f 35 4e bb
       0.026495248 0.02489586 -0.08385835 -0.0031465066
0001b0 11 43 d6 be 76 a4 a7 be 7d b8 88 be ba 5f a5 be
       -0.41848043 -0.3274266 -0.26703253 -0.32299596
0001c0 81 91 62 be 5a 50 32 be bc b1 78 be d3 51 1d bf
       -0.22125818 -0.17413464 -0.2428655 -0.6145298
0001d0 d6 c7 69 3e 64 cc fc be 5d 6f ed 3d bf 4f 14 3e
       0.22830138 -0.49374688 0.115935065 0.14483546
0001e0 fb 26 55 be 8a cf ff bd f8 fb 37 be d6 c6 c5 bd
       -0.20815651 -0.12490757 -0.17967212 -0.096570656
0001f0 58 5b 89 be e8 b2 ec be 0b a5 cd bd 4d e3 74 bd
       -0.26827502 -0.46230245 -0.10041245 -0.059787083
000200 f6 2e 02 be 23 85 5a bf a2 87 4f be cb 43 8f be
       -0.12713227 -0.853594 -0.20266584 -0.2798141
000210 51 d6 4b 3e 5c c1 ef be 23 0c 10 3e f1 46 86 be
       0.19905974 -0.4682721 0.1406713 -0.26226
000220 f2 e0 ef be 3a 62 9e be ea 92 d7 bd 4f a7 42 be
       -0.46851307 -0.30934316 -0.105260685 -0.19009136
000230 51 d8 8a bd f2 59 e0 be 85 99 01 be cd a3 56 be
       -0.0677954 -0.43818623 -0.1265622 -0.20960923
000240 bb 84 28 bf 6d ba 28 3e a5 37 0a 3d 5f 04 88 3e
       -0.6582753 0.16477366 0.033744473 0.26565835
000250 b2 5e 16 be 72 54 11 bf 80 3f c5 bd 24 ae 96 3e
       -0.14684561 -0.5676948 -0.09631252 0.29429734
000260 4c 30 52 3e c8 f9 02 be 20 ce 16 be b0 fd d2 3c
       0.20526236 -0.12790596 -0.14727068 0.025755733
000270 b4 bf dd be e4 e4 32 3e 8e 74 0f 3e be 39 7e bc
       -0.4331032 0.17470127 0.14009306 -0.0155166965
000280 26 6d 41 bd be 6a 6c be b9 c7 20 bb de 59 0b bd
       -0.047223233 -0.23087594 -0.0024533106 -0.03402125
000290 d6 93 6d be 68 7d 35 3e b4 1e 21 3e 41 6a 07 be
       -0.23200926 0.1772362 0.15734369 -0.13224126
0002a0 7b c7 88 3e 5b 5f 0c be 8f be 33 be 43 fb 44 3e
       0.26714692 -0.1370825 -0.17553161 0.19236474
0002b0 b4 57 d7 bc 8d 4b 32 be 46 ff 45 3a e6 37 03 be
       -0.026286937 -0.17411633 0.00075529923 -0.12814292
0002c0 68 e3 7e 3e 28 0c 2c bd 9a 6b 5e be ac f7 de bd
       0.24891436 -0.04200378 -0.21720734 -0.108870834
0002d0 78 12 e3 3d 5e cc 13 be 3e 4c 6e be 7a e4 0b be
       0.11087507 -0.14433429 -0.23271272 -0.13661376
0002e0 43 cd 06 be af 2c 90 be 32 de b4 bc 74 65 5c 3e
       -0.13164239 -0.2815909 -0.022078607 0.21523076
0002f0 3e b0 69 be 4e 29 66 3e 84 3d 00 be 21 e2 86 be
       -0.22821137 0.22476694 -0.12523466 -0.26344398
000300 ea f2 1d 3e ee 23 26 3e b2 3a bb be 12 3b d5 bc
       0.15424696 0.16224644 -0.36568218 -0.026029143
000310 ca 8a 08 bf ac 55 38 3e 45 f1 47 3d 49 33 ab 3e
       -0.53336775 0.18001431 0.048814077 0.33437565
000320 69 dc b3 bd f6 81 b0 bd 87 58 87 3e 45 2c c7 3e
       -0.08782274 -0.08618538 0.26434729 0.38900962
000330 5e cd 5a bd 8f 3c a5 3d 0e 2c 89 be 25 94 f2 bc
       -0.05341851 0.08068191 -0.26791424 -0.029611656
000340 04 e9 f7 bd ea 10 3c 3d ea 47 54 3e 02 10 c1 bd
       -0.12104991 0.045914568 0.20730558 -0.094268814
000350 ac bb a5 bd 5d 71 08 be b3 df 87 bf 06 af 1b 3c
       -0.08092436 -0.13324495 -1.0615143 0.009502178
000360 d2 85 1d be 22 e6 5a 3e a6 4f c6 3e cb a2 d5 3c
       -0.1538308 0.21376851 0.38732642 0.026078602
000370 4a dd c9 3c ea 56 da bd 8b 00 d6 bd 93 22 b9 bd
       0.024641652 -0.10661109 -0.10449322 -0.09039798
000380 70 1b cb 3d 6a 27 85 bc 83 32 88 be cc 14 b9 3e
       0.09917343 -0.016254146 -0.26601037 0.3614868
000390 37 f6 b0 3d 0a c5 b2 be 04 0e ce be c9 23 f2 be
       0.08640712 -0.34915954 -0.40245068 -0.47292927
0003a0 e8 34 07 be e0 00 0f 3e aa c8 97 be ee 64 94 3e
       -0.13203776 0.13965178 -0.29645282 0.28983253
0003b0 19 ff c1 3c 20 23 9c 3e 2c 26 9a bd 9a 2f 35 3d
       0.02368121 0.30495548 -0.07526812 0.04423485
0003c0 b1 a4 2b be 49 70 85 3c f5 84 49 bd b5 2e 31 3e
       -0.16762044 0.016288893 -0.049199063 0.17302974
0003d0 58 0e 63 3e 90 b4 57 be 84 7f 40 bd f2 59 ab 3e
       0.2217344 -0.21064973 -0.04699661 0.3346706
0003e0 67 ea a4 3e 6c 48 cc bc 07 f8 36 3e 36 e8 26 be
       0.32210085 -0.024936877 0.17868052 -0.16299519
0003f0 46 ff 55 3d a1 34 6b 3e 2c 7b 93 be 58 1d 04 3e
       0.0522454 0.22969295 -0.2880491 0.12901819

fc2.bias f4 [100]
000000 b5 aa 00 be 23 80 5f be ce 47 29 bf c0 8a 15 bf
       -0.1256512 -0.21826224 -0.6612519 -0.5841484
000010 3a 83 3d bf 1c 3b 27 be 8f 38 9c 3d 00 0b ca be
       -0.7402836 -0.16331142 0.07627975 -0.39461517
000020 1f da fe be 3e 7d 0c 3f c0 89 fe 3e 00 73 b5 bd
       -0.49775788 0.54878604 0.4971447 -0.08859825
000030 af 6f 1f be 32 03 2a be 4e 62 01 3f 48 9c 28 bf
       -0.15569948 -0.16602781 0.50540626 -0.65863466
000040 ea 69 eb 3d 2f 41 3c bf 65 1d 1e be 8d b3 2d 3e
       0.11494811 -0.7353696 -0.154409 0.16963024
000050 1a 9f 4a 3e 15 c3 0e be c9 7e 01 3d fa 26 18 be
       0.19787255 -0.13941605 0.031615052 -0.14858618
000060 b1 f8 fe be 0e 43 65 be ad a0 9e 3e eb 41 66 39
       -0.4979911 -0.2238886 0.3098196 0.00021959066
000070 1e 10 05 be aa be 9d 3d 15 ea 11 bf 33 c3 a4 3e
       -0.1299443 0.07702382 -0.56997806 0.32180175
000080 ad a4 ba be a2 b9 6f 3f 19 02 92 bd 05 c0 3a bf
       -0.36453763 0.9364263 -0.07129306 -0.7294925
000090 a2 d6 f4 be 05 9f 41 bf 5c 86 6e 3f ee 73 c1 be
       -0.47820002 -0.7563327 0.93173766 -0.3778376
0000a0 32 96 90 be 58 43 bf be dc 4d bb 3d 2e 0c 3e bc
       -0.2823959 -0.37356067 0.0914571 -0.011599584
0000b0 48 17 d0 be 38 57 d2 bd 42 5d 5e 3c 2b 75 c8 be
       -0.40642762 -0.10270542 0.013572039 -0.39151892
0000c0 3f c4 30 bf b3 ce 2a 3f 7f ae c5 bd 93 fa 0d 3f
       -0.6904945 0.6672165 -0.09652423 0.5546047
0000d0 a6 28 02 bf a3 d4 9a be 2c ca 18 be 3a 03 07 bb
       -0.50843275 -0.30240354 -0.14920872 -0.0020601288
0000e0 ba 08 9b 3d a3 eb fe be 27 33 f3 bd 0d 94 03 bf
       0.07570024 -0.49789152 -0.11874991 -0.5139778
0000f0 e1 19 fa be a3 9a 45 bf e9 a9 27 3f ba 32 b5 bc
       -0.4884787 -0.7718908 0.6549364 -0.022118915
000100 ce 32 e9 3e 19 31 f9 be d4 21 b2 be 8b 47 99 be
       0.45546573 -0.4867027 -0.34791434 -0.29937395
000110 b0 5d 0c bf b9 83 35 3d 67 17 a6 be cd 79 83 bd
       -0.54830456 0.044315074 -0.3243973 -0.06419716
000120 ec 20 d4 bc ac cd 03 bf 55 51 3a bf 3e d7 a5 3f
       -0.025894605 -0.51485705 -0.7278035 1.2956312
000130 31 59 98 be f3 7d 14 be 2a 0c ab be 75 77 db 3e
       -0.29755548 -0.14501171 -0.33407718 0.42864576
000140 06 9a e0 be 9f 2f ff be c6 b7 41 be af dc 90 3e
       -0.4386751 -0.4984102 -0.1891776 0.28293368
000150 a7 c1 b5 be d9 e9 65 be 4e 03 4f bf 50 2d e2 be
       -0.35499308 -0.22452487 -0.8086442 -0.44175196
000160 4b 7e 33 be e3 a8 af be f1 46 2d be 73 99 a3 be
       -0.17528646 -0.34308538 -0.16921593 -0.3195301
000170 72 c4 1c bf de 9c 07 bf cf e3 f6 be 91 60 85 be
       -0.6123725 -0.52973735 -0.4822068 -0.26050237
000180 4a 62 17 bf 1c 5d c3 3c 32 44 ad 3e ec 1f 20 3f
       -0.5913435 0.023848109 0.3384109 0.6254871

fc3.weight f4 [200, 100]
000000 7c 13 75 3a 0c 43 9e 3d 67 cc 69 be 58 f5 19 be
       0.00093489117 0.07727632 -0.2283188 -0.15034997
000010 5f 82 dd be 9e 64 e5 bd 92 82 c4 3d db bd a9 be
       -0.43263528 -0.11200832 0.09595217 -0.3315266
000020 d9 db 1b 3f d0 49 bc bd 86 b8 03 bf 21 c0 8e be
       0.60882336 -0.09193766 -0.51453435 -0.27880958
000030 f0 45 69 3c bb e9 87 be 0a 19 89 be 43 bc 8b be
       0.014237866 -0.2654551 -0.26776916 -0.2729207
000040 44 66 90 be c8 f5 16 3e ae da 1f bd 8c aa 52 bf
       -0.28203022 0.14742196 -0.03902691 -0.82291484
000050 10 bd cf 3e 6d f9 11 be d1 01 6a be ae e5 df bc
       0.4057393 -0.14255305 -0.22852255 -0.0273312
000060 ba ce ae 3d 95 41 8e bd ab bc 03 be d4 12 68 bd
       0.08535524 -0.069461025 -0.1286494 -0.05665858
000070 19 0a 6d bc 76 b9 07 3e c8 9a 8e bc ee bf 6f bd
       -0.0144677395 0.13254341 -0.01740779 -0.058532648
000080 4b cd 28 bd 07 e4 43 3d 84 fa 12 3e 38 83 7d be
       -0.041211408 0.047824886 0.14353377 -0.24757087
000090 c6 3a 3b bf 9f d5 6c bd 54 f7 3f be cf 58 80 3e
       -0.73136556 -0.057820912 -0.18746692 0.25067756
0000a0 e1 2f b0 3d 86 49 c4 bd 78 b9 2f bd 51 57 f2 3e
       0.08602882 -0.09584336 -0.042901486 0.47332242
0000b0 3b 6e a7 3c 04 7c 5b bc 80 5d 2c be b3 cf cb be
       0.020438304 -0.013396267 -0.16832542 -0.398069
0000c0 82 5a c1 bd ab 2d 18 bf bb 82 ae bc f6 23 30 3e
       -0.09441091 -0.59444684 -0.021302572 0.17201218
0000d0 59 c1 37 bd 2f 35 93 3d fb 02 ad bc 00 7a 4c 3c
       -0.044862125 0.07187878 -0.021119585 0.012480259
0000e0 48 ad e0 be 84 6f 23 be 2f ca 4e 3d c2 49 eb 3d
       -0.43882203 -0.15960509 0.050485786 0.114886776
0000f0 30 7a 14 3d 6a b5 7c bd 17 bc 95 bc 22 e2 e2 bb
       0.03624934 -0.061696447 -0.018278165 -0.00692393
000100 3e 77 b2 be 96 b7 07 3e e1 68 72 3e b6 0c 56 3d
       -0.348566 0.13253626 0.2367282 0.052258216
000110 08 fe 1f 3c 18 30 94 3c 11 a6 de be 37 82 25 be
       0.009765156 0.01808934 -0.43486074 -0.16162954
000120 1f dd 49 bd 57 b5 1c be c6 e1 68 be 34 2d 2d 3d
       -0.049283143 -0.1530355 -0.22742376 0.042279437
000130 b9 34 bd 3e da 3f 47 bd a3 93 2f 3e 28 55 b2 3d
       0.36954287 -0.048644878 0.17146163 0.087076485
000140 1b 99 7f be 23 77 47 3e 31 56 83 3d 49 38 9c 3e
       -0.24960749 0.19479041 0.06412924 0.30511692
000150 ca eb 2a 3e e2 ac 56 3e d3 55 55 be 7c 6d d9 3d
       0.16691509 0.20964387 -0.2083352 0.106165856
000160 69 fb 3b be 2f 99 39 bd b4 b1 74 be ee f8 f9 3d
       -0.18357624 -0.045312103 -0.23895913 0.12205683
000170 f7 0f 80 3e 5e 22 f7 be 4d 8a 45 bd 32 90 90 be
       0.2501218 -0.48268408 -0.048227597 -0.28235012
000180 5d 24 5a 3e c5 39 0a be ca 77 07 be 5f 20 c5 3d
       0.21302934 -0.134986 -0.1322929 0.09625315
000190 b1 dc 22 bd 3a dc fa 3c 9f 06 b6 be 6f 71 84 be
       -0.03976125 0.03062259 -0.35551926 -0.25867793
0001a0 8a 9b ff be 72 5c 39 3c 9f 21 02 bf db ba 26 bc
       -0.49923354 0.011313545 -0.5083255 -0.010176386
0001b0 de 41 9a be 6c 1e 03 bf 57 85 f7 3d 17 f6 a3 bd
       -0.30128378 -0.51218295 0.120859794 -0.08005922
0001c0 66 1a 3a bf 83 c0 54 be 81 c7 da be 6c 3c a6 bc
       -0.7269653 -0.20776562 -0.42730334 -0.020292483
0001d0 ff fc 21 be 3e fb 39 be a7 7f 74 3d 5b e6 87 3e
       -0.15819167 -0.18162248 0.05969205 0.26542935
0001e0 a0 5c f4 3d 51 72 cb bd 14 14 ad b9 41 77 23 3d
       0.11931729 -0.099339135 -0.0003301209 0.03990865
0001f0 98 ad 8d 3d e3 94 8d be d0 78 23 be 6b 5b 00 bc
       0.06917876 -0.27652654 -0.15964055 -0.007834296
000200 1d 97 b4 bd 60 7a ac 3e 58 82 af be b3 00 28 be
       -0.08817885 0.33687115 -0.34279132 -0.16406517
000210 2c df a8 be 33 6b ce be 90 69 13 be 90 76 a3 be
       -0.32982767 -0.40316162 -0.14395738 -0.31926394
000220 61 13 a3 be 52 82 28 be 15 b4 75 bd a9 57 28 3e
       -0.31850722 -0.16455963 -0.059986193 0.1643969
000230 8c 01 56 be f7 3e 69 be c8 6c 4d bd 55 a0 d0 be
       -0.20899028 -0.22777925 -0.05015257 -0.40747324
000240 eb 8d 4c 3c 0c cb 59 3e 86 28 fd be 37 ab 97 bd
       0.012485008 0.21268862 -0.4944498 -0.074057035
000250 d5 05 6e be ee 12 f7 be 02 3f ec bd 54 66 88 bc
       -0.23244412 -0.4825663 -0.11535455 -0.016650356
000260 6f c8 83 be ab 24 9d bd 11 77 84 3d e4 0d 1b 3d
       -0.25738856 -0.076730095 0.064680226 0.037855044
000270 c7 fb f8 bc e6 c9 61 be 56 b1 35 be f7 5f 12 bf
       -0.030393494 -0.22049674 -0.1774343 -0.5717768
000280 6c 3c 0a be 6d 41 07 bf a4 5f 8b be 65 13 a6 bd
       -0.13499612 -0.52834207 -0.27221406 -0.08109168
000290 63 9a 32 3d 2d 28 cf be a0 97 82 be 14 63 e3 bb
       0.043604266 -0.4046034 -0.25506306 -0.0069393013
0002a0 94 2d 4a be f0 c3 ab 3d 95 0f f2 bd 11 5a 19 be
       -0.19743949 0.083869815 -0.11819378 -0.14975764
0002b0 60 29 5c be ac 91 f9 3d 87 e4 d9 be e0 8a 88 3d
       -0.21500158 0.12185988 -0.42557165 0.06667113
0002c0 a7 0c 88 be 1d 28 eb be 2d cc 63 be fd ab 2c bf
       -0.26572153 -0.45929042 -0.22245856 -0.67449933
0002d0 f7 89 8d bf 1b 54 58 be 3c 6e e7 bc 76 8e a6 3e
       -1.1057729 -0.21125834 -0.028250806 0.32530564
0002e0 91 76 14 3e d9 5c b3 bd 20 f3 98 be bc cf c9 be
       0.14498354 -0.08757944 -0.2987299 -0.394163
0002f0 42 cd b9 3d 33 0e 75 be b6 95 fe bc 12 4c d0 3c
       0.09072353 -0.23931198 -0.031077247 0.025426898
000300 10 8f 28 be 91 cf 88 be c1 d8 98 bd 80 12 20 3c
       -0.16460824 -0.2672086 -0.074632175 0.009770036
000310 ca 30 c8 3d 3c 6e 8d 3d 66 32 fb 3d 5f 7c f4 bc
       0.09774931 0.06905791 0.12265472 -0.029844461
000320 07 54 71 ba 02 72 1e be ff 7a b5 39 92 ce 10 be
       -0.00092059415 -0.15473178 0.0003461465 -0.141413
000330 f8 02 38 bc 26 38 9a bd 8e c2 c9 bc ce 23 7f be
       -0.011231177 -0.07530241 -0.024628904 -0.24916002
000340 bb 36 1e be 23 4b 1c 3c 14 c5 aa bc 60 3a a4 bd
       -0.15450566 0.009539398 -0.020845927 -0.08018947
000350 23 1f 1e be f8 7d 3c bc 1b 07 e5 3c a8 c7 f4 bc
       -0.15441565 -0.011504643 0.02795749 -0.02988036
000360 b7 83 21 3d 62 1e b2 bd 6f 90 b6 bc 5d 4a ba bc
       0.039432254 -0.08697201 -0.022285668 -0.022740537
000370 9b 9d 14 be fa 56 8b 3c 45 88 2e be 24 2e 04 be
       -0.14513247 0.017009247 -0.1704417 -0.12908226
000380 98 b8 be 3a 78 27 6e be 30 44 83 be 1e 03 aa bb
       0.0014550863 -0.23257244 -0.2563796 -0.00518836
000390 b8 c6 14 3d b4 91 3c bd d8 a0 db 3d 19 90 54 be
       0.036322325 -0.04603739 0.10724038 -0.20758094
0003a0 f3 2f a9 bd 9a 9d 17 be 6a 6b dc be f6 e0 af be
       -0.08261099 -0.14806214 -0.430507 -0.3435132
0003b0 38 27 51 be e4 4c 26 be af cb 95 bc 0a 36 f2 3d
       -0.20425117 -0.16240269 -0.0182856 0.118267134
0003c0 11 b0 a1 bd 3c 80 39 bb 19 d2 0f be a1 79 bb be
       -0.0789491 -0.0028305193 -0.1404499 -0.36616233
0003d0 cf 91 68 3d 8f 8d d2 bd 35 4c a6 bd b7 e9 b9 3d
       0.05677968 -0.102809064 -0.08120004 0.09077781
0003e0 de 24 ab be 26 23 60 bd 05 bb 13 3d 15 e6 5f be
       -0.33426565 -0.05472102 0.036067028 -0.21865113
0003f0 e0 08 1e be 90 fb 3a be 75 57 a4 bd 9d c3 68 3c
       -0.15433073 -0.18260026 -0.080244936 0.014206794

fc3.bias f4 [200]
000000 b9 ce 0f 3f 51 95 cc be 59 18 49 be 35 5b 05 3f
       0.5617481 -0.3995767 -0.19638194 0.52092296
000010 c3 ff fa bd d3 64 21 be 27 a6 33 bd 5d b7 31 be
       -0.12255814 -0.15761118 -0.043859627 -0.17355104
000020 06 89 6f be 9f 09 08 be 8c 55 8d be 28 e2 0e be
       -0.23392114 -0.1328492 -0.2760433 -0.1395346
000030 5d f0 d5 3e ce f8 50 be b3 bb 3d be c8 31 ec 3d
       0.41784945 -0.20407411 -0.18528633 0.115329325
000040 25 86 64 be 43 09 62 bd f5 4c a1 3e c7 b9 65 bd
       -0.22316797 -0.055184614 0.31504026 -0.056085374
000050 97 40 4d be e0 36 6b be 37 1e 50 be bd eb a3 3d
       -0.2004417 -0.22970152 -0.20324026 0.08003948
000060 aa 85 32 be 44 00 8a 3e 4e cb 4f bf c5 6d 3b be
       -0.17433801 0.26953328 -0.81169593 -0.18303593
000070 c0 ed ec be 65 92 73 be d5 18 2d be 99 0c 96 3e
       -0.4627514 -0.23786314 -0.16904004 0.29306486
000080 3e fa 58 3e 28 a1 67 be e4 91 74 be 37 ce 55 be
       0.2118921 -0.2262007 -0.23883778 -0.20879446
000090 85 82 ff bd 53 ba 9f 3f cb 65 e6 3d 9a 01 45 be
       -0.124760665 1.2478737 0.11249884 -0.19238892
0000a0 2e 72 52 bf 1f a0 28 be af 36 1b be be fe 2a be
       -0.82205474 -0.16467331 -0.15157579 -0.16698739
0000b0 45 3f 62 3f 76 32 eb be c8 e2 03 be aa 11 29 be
       0.8837779 -0.45936936 -0.12879479 -0.16510645
0000c0 b4 75 1e be 57 91 07 be 47 19 45 be 0b 1e 04 be
       -0.15474588 -0.13239037 -0.19247924 -0.12902085
0000d0 82 e7 4c bf c3 9b 65 be 16 9a 2e bf 29 ef 17 bd
       -0.8004075 -0.224227 -0.68203866 -0.037093315
0000e0 01 c3 b6 bd c2 a2 64 be 1e 4e 28 be e5 0a 55 be
       -0.08923913 -0.22327712 -0.1643605 -0.20804937
0000f0 ed 60 17 be 77 4b 3c be 23 96 e0 bd ea c0 1b bd
       -0.14783068 -0.18388163 -0.10966136 -0.038025774
000100 5c 31 3e be df 76 3d be c3 91 c4 bd 20 2c 49 be
       -0.18573517 -0.18502377 -0.09598114 -0.19645739
000110 a2 3e c3 bd 34 b7 9c be 0b 27 b7 be 66 31 82 3f
       -0.09533431 -0.30608523 -0.35771975 1.0171325
000120 19 f4 5c be 68 6b 6e 3e a0 94 24 be a1 51 3d be
       -0.21577491 0.2328316 -0.16072321 -0.1848817
000130 81 6a a2 be a8 b2 29 be 66 23 e1 bd 01 b0 7d be
       -0.3172188 -0.16572058 -0.1099308 -0.24774171
000140 d9 55 19 be 7f d8 cc bd 99 5b f6 bd 16 0e 6f bd
       -0.14974155 -0.10002231 -0.120291896 -0.058363043
000150 3f 3d 52 be 21 70 ca 3f 5a c5 fb be 02 1a a0 bc
       -0.20531176 1.5815469 -0.49174005 -0.019543651
000160 42 53 90 bd 80 c6 46 be b6 41 14 be 1b c6 d7 bc
       -0.0704713 -0.19411659 -0.14478192 -0.026339581
000170 50 ad ed bd 5f 49 d1 be 30 ee 25 be fd 47 41 3e
       -0.11605322 -0.4087629 -0.16204143 0.18875118
000180 83 35 8f bd 2b 54 26 3f 1a af 47 be e3 81 9d 3f
       -0.069926284 0.6497218 -0.1950039 1.2305263
000190 0a f4 cb 3b 48 52 36 be bc 38 ba bd 39 ed 8e bd
       0.00622416 -0.17804825 -0.090928525 -0.069788404
0001a0 dd 66 18 bf 39 47 39 be ec f5 14 3d 2c 8a b9 bd
       -0.59531957 -0.18093576 0.036367342 -0.09059557
0001b0 03 db 20 be 0b d3 03 be 06 41 e6 3e 36 14 ba bd
       -0.15708546 -0.12873475 0.44971484 -0.09085886
0001c0 8b e2 25 be 84 01 18 be 3e 8f 7d 3f 3d 4c d6 bd
       -0.161997 -0.14844328 0.99046695 -0.1046376
0001d0 3e 52 ab be 9b a6 18 be d7 96 16 be ec f8 d9 be
       -0.33461183 -0.14907305 -0.14705978 -0.42572725
0001e0 09 7b ea bd 95 fa 3b bf e5 76 3e be ba 21 02 bd
       -0.11449248 -0.7342923 -0.18600042 -0.031770445
0001f0 83 af 39 be 25 ee 9b be 5f 71 18 be 1a 96 be bd
       -0.18133359 -0.30455127 -0.14886998 -0.09305973
000200 59 69 b1 bd 61 93 0e be 0f f6 c9 be a6 56 2a 3f
       -0.086626716 -0.13923408 -0.3944554 0.66538465
000210 95 e8 3f be a4 89 13 be 65 d9 78 be e5 50 9a 3c
       -0.18741067 -0.14407974 -0.2430168 0.018837402
000220 a8 a9 86 be 39 3e 2c be 1f b2 42 be 99 ef 87 3c
       -0.26301312 -0.16820611 -0.1901326 0.016593741
000230 dd f4 51 be 6b 4c 29 be 2e 47 5c be bf 41 2e be
       -0.20503564 -0.16533057 -0.21511528 -0.17017268
000240 37 fe ed bd 5a fd 3f be 45 9f 6e bd 9c 78 b8 3e
       -0.11620753 -0.1874899 -0.05825736 0.36029518
000250 76 67 bc be 37 6a c1 bd ac d6 0f bf ef 66 80 be
       -0.36797684 -0.09444087 -0.5618694 -0.25078532
000260 84 b4 45 be 77 59 03 bf ce 49 23 3e a1 11 23 be
       -0.19307142 -0.5130839 0.15946123 -0.15924694
000270 ec 11 94 bc 03 67 3f be 31 ed 11 be 40 d0 2c be
       -0.018074952 -0.1869164 -0.14250638 -0.16876316
000280 48 c2 b3 bd 43 7d d4 bd f8 01 d8 be d4 f4 4e 3f
       -0.087772906 -0.10375454 -0.42189002 0.8084233
000290 b1 ca 4b be 36 53 ef 3d 66 f8 3d be f5 f0 ef 3e
       -0.1990154 0.11685793 -0.18551788 0.46863523
0002a0 be 21 33 be 06 65 39 be 2a a9 97 be 1d 6d 4b 3e
       -0.1749334 -0.18104944 -0.2962125 0.19865842
0002b0 a6 49 a3 bd 77 94 5c 3d 20 93 47 be 4e c4 b3 3c
       -0.07973032 0.053852525 -0.19489717 0.021944191
0002c0 c3 51 d7 be 9d 5d 44 bf 5f 9f a5 be 08 d3 80 be
       -0.42054567 -0.7670534 -0.32348153 -0.25161004
0002d0 c8 fa 76 bd e8 34 bc 3f a6 5e 51 3f 57 62 ca bd
       -0.060297757 1.4703646 0.8178505 -0.09882038
0002e0 64 fc 60 be 90 f1 18 be 86 1e 2b be fb c3 24 be
       -0.2197128 -0.14935899 -0.16710863 -0.16090386
0002f0 b6 5e 7a be 7a d4 22 bf 9b 7f 64 ba 0f 0e 78 3d
       -0.24450192 -0.63605464 -0.00087165245 0.060560282
000300 93 ca 8a be ea 88 fe bd 84 9a a2 bc 2b 3d 88 be
       -0.27107677 -0.12428458 -0.01984907 -0.26609167
000310 be f8 5f be fe 94 16 be a2 fa 4b bd 70 26 e4 bd
       -0.21872231 -0.14705274 -0.04979957 -0.11140144

fc4.weight f4 [1, 200]
000000 39 b9 f7 3c 76 a9 6f bc 92 36 be 3c 9e 78 18 3d
       0.030239688 -0.014627805 0.02321938 0.037224405
000010 9b ec 48 3d 6e 96 09 3b 0a 9c 57 bd c0 ae 99 bc
       0.04905377 0.0020994204 -0.052639045 -0.018760085
000020 03 83 86 bd ce 6b 6c bc fa 96 16 3d 17 d3 01 3b
       -0.06567957 -0.0144299995 0.036765076 0.0019809657
000030 26 f0 8e bd d6 5b e1 3c b0 1a 93 3d 8b 37 95 bd
       -0.069793984 0.027509611 0.071828246 -0.072859846
000040 34 62 3a 3b f4 c3 ed bc 33 fe 09 3d a5 16 9a bc
       0.0028439881 -0.029024102 0.03368969 -0.018809626
000050 f8 98 36 3c cd 56 9f 3c b5 c2 60 bc 35 80 59 bd
       0.011144869 0.01945057 -0.013718297 -0.053100783
000060 54 dd c9 bb 70 58 8c 3d 6f 0f a7 bd aa 43 7b bd
       -0.0061604176 0.068528056 -0.081572406 -0.061343826
000070 9b 77 6e bd 69 53 58 3c 61 c3 f2 bb bb 1f 43 3c
       -0.058219533 0.01320348 -0.007408545 0.011909421
000080 56 c2 4a bd ac 45 8e 3c bd cd c1 3c 93 bd 0a 3d
       -0.04950174 0.017367207 0.023657674 0.0338722
000090 26 f1 cf 3b 26 1e 7a 3e 90 15 39 3d bc 1f 62 bd
       0.006345886 0.24425563 0.04518658 -0.055206046
0000a0 f1 2d c2 bd 4f 1d c0 bc a8 f9 7f ba 5b 33 93 3c
       -0.09481419 -0.023451475 -0.00097646797 0.017968824
0000b0 d9 37 82 3d bb 11 d3 3c 18 14 32 bc 68 cb 03 3c
       0.06358308 0.02576529 -0.010869049 0.008044101
0000c0 76 53 55 3c ff a8 a4 bd 01 33 aa 3c d0 be 1c 3b
       0.013020387 -0.08040046 0.020776274 0.0023917444
0000d0 56 17 40 be af d7 33 3c 37 7a 13 bb 35 77 5f 3d
       -0.18758902 0.010976716 -0.0022503266 0.054557044
0000e0 78 b4 25 bc 30 e6 ec 3d 38 30 0b bc b7 dc 70 bc
       -0.010113828 0.11567342 -0.008495383 -0.01470106
0000f0 86 a3 6f bc 65 fc 8b bc 58 65 f0 bb d4 78 c1 bd
       -0.014626389 -0.017088125 -0.0073363 -0.09446874
000100 ca ce c7 3b ee b6 70 3d f6 e8 ed ba bc 51 9e bc
       0.006097649 0.058768205 -0.0018151093 -0.019326083
000110 91 a2 05 bc 62 78 7e bb d5 dd 6e bd 43 ab 20 3e
       -0.008156435 -0.0038829078 -0.058317024 0.15690331
000120 63 98 34 3c 37 d0 67 bd a0 91 97 bb fd 3e 5a 3c
       0.01102266 -0.056595054 -0.004625514 0.013320682
000130 1c 11 62 3d 00 4e ed bd 74 67 80 3c cd e9 c9 3c
       0.055192098 -0.11587143 0.01567433 0.024647618
000140 f6 b2 c2 3c f4 b5 aa 3c ae a1 a8 3c 6f 2c 3e 3d
       0.023766976 0.020838715 0.020584907 0.046429094
000150 65 f5 be 3c dc 8c d5 3e 53 7f 54 bd f8 eb 81 bd
       0.023310373 0.4170903 -0.05187924 -0.063438356
000160 b0 35 7b 3c 63 fb bb 3b a3 5f 9c 3c dc ea 62 3d
       0.015332624 0.0057367547 0.019088572 0.05539976
000170 5b 43 d1 3b 51 15 ff bc b4 13 c8 3c ed 29 c9 3d
       0.006386203 -0.031138094 0.024423458 0.0982245
000180 2d 25 8d 3b 9b 7a 21 3d 22 cf ad ba 10 59 93 3e
       0.00430741 0.039423566 -0.0013260583 0.28778887
000190 4f 36 b2 bd 4a 35 8d bd 15 e5 e2 3d 67 3d 0c bd
       -0.08701765 -0.0689493 0.1107885 -0.034238245
0001a0 5d d0 da bc 0d 93 17 bd 7d 89 83 3d 02 2a 48 bd
       -0.026710683 -0.037005473 0.06422708 -0.048868187
0001b0 48 b8 a1 3c b1 76 cc bc 0d 6b 15 3d aa 9f 9b bc
       0.019741192 -0.02495894 0.036479045 -0.018997032
0001c0 19 43 0b bd ac c5 50 3c a7 33 e4 3d 0d 5a a7 bc
       -0.033999536 0.012742441 0.111426644 -0.020428682
0001d0 f8 57 9c 3d 64 73 36 be ce fe c9 bd 4a 68 d7 bc
       0.07633966 -0.17817456 -0.09863053 -0.026294846
0001e0 3b b0 db 3c 10 2e d1 bd f9 fe d7 3a 7f 5d 05 3d
       0.026817432 -0.10213864 0.0016479186 0.032559868
0001f0 bc 88 d5 bc 2b 2e e4 bd 39 ed b4 3c 7a d3 c8 bc
       -0.026066177 -0.11141618 0.022085773 -0.024514902
000200 be b0 19 bb 37 82 4b bb 47 c2 38 3d a4 db b3 bc
       -0.0023451294 -0.0031052956 0.045107152 -0.021955319
000210 50 d8 0a 3c a6 fb 38 3c 21 09 a8 bd 68 e4 ab 3d
       0.0084744245 0.011290466 -0.08204866 0.083931744
000220 54 82 a9 bb 4c 4b 8f bd 84 53 80 3d cd f3 8d 3d
       -0.005173007 -0.069967836 0.06265929 0.06931267
000230 a8 36 90 bc a2 e8 2c 3b a8 8b 31 ba 65 50 7b 3c
       -0.017604187 0.0026383777 -0.00067728246 0.015338992
000240 be b1 a3 3a 9a 2b d8 3c 09 84 ce 3c 7d 6f 65 3c
       0.0012488884 0.026387978 0.025209444 0.014003632
000250 71 cf 65 bc 8e a6 87 bc 71 90 f1 3b 61 42 8d 3c
       -0.014026509 -0.016558912 0.007371955 0.017243566
000260 95 20 c5 3c c9 fd 2d bd f7 93 42 3c e2 c4 47 3c
       0.024063388 -0.042478357 0.011876098 0.012192937
000270 35 fd 20 3d 26 3e d4 3c 2a 16 cc 3c 83 c0 16 bc
       0.039303977 0.025908541 0.024912912 -0.009201172
000280 43 21 c9 3c e7 b7 3e 3c 0e d6 4f bd fa e5 e9 3c
       0.024551993 0.011640525 -0.050741248 0.028552044
000290 5d b4 9a bd 9b b9 11 bd 65 2e aa bc 66 4a 54 3d
       -0.07553933 -0.035577398 -0.020774076 0.051828764
0002a0 c2 37 84 bd ee 4c 8a bc 6f 86 4d 3b 57 a1 cd 3d
       -0.064559475 -0.016882386 0.0031360646 0.10040539
0002b0 7e ee fd 3b ad cb 6e 3d ac dd 68 3c 54 b1 78 bd
       0.0077493777 0.05829971 0.014213007 -0.06071599
0002c0 6e 12 08 3d 49 05 b8 bd db eb 81 3b 92 cb 34 3b
       0.0332207 -0.08985383 0.0039648837 0.0027587158
0002d0 4d 52 7f 3c bd a9 d0 3e d0 25 aa 3c 84 cc ba bd
       0.015583587 0.407545 0.020769984 -0.091210395
0002e0 76 3e 1a 3c 87 81 4a 3c 21 25 96 bc 8a 52 0c 3d
       0.009414306 0.012359983 -0.018328251 0.034258403
0002f0 05 91 4f 3c d1 75 8f bd ba 83 35 3d db 4d 34 bd
       0.012668853 -0.070048936 0.044315077 -0.04401956
000300 2a 8b 07 bc 9f 30 65 3b c3 4b ee 3c 0e d2 b5 3b
       -0.008272925 0.0034971607 0.02908886 0.005548722
000310 2b 99 a6 3b c4 94 8e bd dd 52 15 3b 2c e8 0e 3d
       0.005084177 -0.069619685 0.0022784986 0.034889385
