Project2Agent/checkpoint_actor (1).pth (torch_old, 112346 bytes, 8 tensors)

fc1.weight f4 [50, 33]
0	0x3ec508a6	0.3848316
1	0x3e0c630b	0.13709657
2	0x3e76e097	0.24109112
3	0x3da8791c	0.08226225
4	0xbe1513f7	-0.14558397
5	0x3e86e104	0.26343548
6	0x3e11dae5	0.14243658
7	0xbebd6048	-0.3698752
8	0x3df9527b	0.12173935
9	0x3d9bd237	0.07608455
10	0xbcfed4fe	-0.031107422
11	0xbe700440	-0.23439121
12	0x3a7d6906	0.0009666834
13	0xbf28437b	-0.6572797
14	0x3ebe633f	0.37185094
15	0xbee65a3e	-0.44990724
16	0x3e460a33	0.19339828
17	0x3c550075	0.013000597
18	0x3d8223e2	0.063545
19	0x3bda09e7	0.0066540125
20	0x3c965210	0.018349677
21	0xbc41cbf7	-0.011828414
22	0x3e211f25	0.15734537
23	0xbdcb2fec	-0.0992125
24	0x3e6a633a	0.22889414
25	0xbe2c0905	-0.16800316
26	0x3f1c0e20	0.60959053
27	0x3e2131de	0.15741679
28	0x3e982501	0.29715732
29	0xba312200	-0.00067570806
30	0xbe215352	-0.1575444
31	0x3d9aea06	0.07564168
32	0xbfb87db2	-1.4413359
33	0x3dd2b784	0.10288909
34	0x3e33dd23	0.17564826
35	0x3f12988a	0.57264006
36	0xbea504c6	-0.32230204
37	0xbe03dad5	-0.12876447
38	0xbe090a75	-0.13382895
39	0x3e0bb98b	0.13644998
40	0xba55f38f	-0.0008161598
41	0x3db8f08c	0.09030256
42	0x3e651232	0.22370222
43	0x3cc160e0	0.023605764
44	0xbe182a70	-0.14859939
45	0xbc75cfcb	-0.015003155
46	0x3e311719	0.17293967
47	0x3e5c2ec4	0.21502215
48	0xbf061b58	-0.52385473
49	0xbe03d0db	-0.12872641
50	0xbe5214f3	-0.20515804
51	0x3e2637c0	0.16232204
52	0xbacf9e2c	-0.0015839986
53	0x3d02d1f4	0.03193851
54	0xbdb7954a	-0.089640215
55	0x3d7b4e70	0.0613541
56	0x3e4503e4	0.19239765
57	0x3c878280	0.01654172
58	0xbe81a474	-0.2532078
59	0xbdc4ed64	-0.09615591
60	0x3eacd46b	0.33755812
61	0x3ee4dba5	0.44698825
62	0xbdcbc75c	-0.09950134
63	0xbe75c223	-0.23999839
64	0xbdfe5cd2	-0.12420048
65	0xbfa8f579	-1.3199912
66	0xbefe753d	-0.4969882
67	0xbe6645b0	-0.22487521
68	0x3eaf342c	0.3421949
69	0xbe03c66a	-0.12868658
70	0x3e980ad1	0.29695752
71	0x3ec4dd95	0.38450304
72	0x3e505fc9	0.20349039
73	0x3cb898b2	0.022533748
74	0xbe3facde	-0.18718287
75	0xbdf38367	-0.118902974
76	0xbe0b196d	-0.13583918
77	0xbcdfcb6e	-0.027318683
78	0x3d1d5a69	0.0384163
79	0x3e9c2ac9	0.30501392
80	0x3cf17f93	0.029479777
81	0xbf21d727	-0.6321892
82	0x3e21e77c	0.1581096
83	0x3d7094ed	0.058735777
84	0xbd9d5e21	-0.07683969
85	0xbd983771	-0.074324496
86	0x3d41b199	0.04728851
87	0x3e8d2961	0.27570632
88	0xbc068a82	-0.008211734
89	0x3e579975	0.21054633
90	0x3aed24ee	0.0018092671
91	0xbdcb2116	-0.0991842
92	0x3e433789	0.19064154
93	0x3e96505c	0.29358184
94	0x3ede0928	0.4336636
95	0x3c774b80	0.015093684
96	0xbe09dac3	-0.13462357
97	0x3dcd30aa	0.100190476
98	0xbfe372d0	-1.7769413
99	0xbd79dd7b	-0.061002236
100	0x3e97ce33	0.29649505
101	0xbf16b52f	-0.58870214
102	0xbab21f37	-0.0013589625
103	0xbb468c21	-0.0030295926
104	0x3dcbb333	0.09946289
105	0x3ea0dd58	0.31418872
106	0x3e0bae12	0.13640621
107	0x3e5ebfd7	0.21752869
108	0xbc648e15	-0.013949891
109	0xbdb52b2f	-0.08846127
110	0xbe8716ae	-0.2638449
111	0x3c0ef5f8	0.008725636
112	0x3dab1a60	0.0835464
113	0xbde59d73	-0.11211672
114	0x3f396fb6	0.7243608
115	0xbefacc1f	-0.48983857
116	0x3e174d81	0.14775659
117	0xbe23cfde	-0.15997264
118	0xbdd382e0	-0.10327697
119	0x3ccdd90d	0.025127912
120	0xbcca2b5f	-0.024678884
121	0x3dd7b989	0.10533435
122	0xbe7e3831	-0.24826123
123	0x3d85cd25	0.06533269
124	0x3eaf71e7	0.34266588
125	0x3e3236d9	0.17403735
126	0x3ec7b725	0.39006916
127	0xbe0f5987	-0.13998996
128	0xbc46f6a0	-0.012143761
129	0xbe62f9e4	-0.22165638
130	0x3e05e983	0.13077359
131	0x3f8e18ec	1.1101356
132	0xbd99cdc4	-0.0750995
133	0xbd55fe65	-0.052244563
134	0x3e9b51d0	0.30335855
135	0xbcbb0234	-0.022828199
136	0x3d17959e	0.03700792
137	0xbe0657e4	-0.13119465
138	0xbdc54866	-0.096329495
139	0xbc6bda57	-0.014395318
140	0x3db19937	0.086718015
141	0x3d496d20	0.049176335
142	0x3e7d308c	0.2472555
143	0xbdcb02cf	-0.09912645
144	0x3ec29b0a	0.3800891
145	0x3b09fbab	0.0021054547
146	0x3e8d6fbd	0.27624312
147	0xbe9313a8	-0.28725934
148	0xbc115095	-0.00886931
149	0xbe72d4ee	-0.23714039
150	0xbe8256d5	-0.25456873
151	0xbde6726b	-0.11252292
152	0x3e52e94a	0.20596805
153	0xbe75ec1d	-0.24015851
154	0xbd4f6744	-0.05063559
155	0x3b8cbe6a	0.00429516
156	0x3efb07f1	0.49029496
157	0x3df7608b	0.12078961
158	0x3e01b8d7	0.12668167
159	0x3ef95fce	0.48705906
160	0x3f0dad20	0.5534229
161	0x3d6d9544	0.05800368
162	0xbeece15e	-0.46265692
163	0xbda90c3a	-0.08254285
164	0xbf28dd6f	-0.6596288
165	0xbd3d9d69	-0.046292696
166	0x3ede5f91	0.43432286
167	0xbe32f1ed	-0.174751
168	0xbe438ca8	-0.19096625
169	0x3e863342	0.26210982
170	0xbf1e9ce2	-0.61958134
171	0x3e3328cf	0.17496036
172	0x3d1b9048	0.037979394
173	0xbe87735d	-0.26455203
174	0xbea6a8a9	-0.32550552
175	0xbe1437bc	-0.14474386
176	0xbe241503	-0.1602364
177	0x3dfb6ca6	0.122765824
178	0xbeeaf037	-0.45886394
179	0xbea0bf6f	-0.31396052
180	0xbe343523	-0.17598395
181	0x3df21c3d	0.11821792
182	0xbdc7cd67	-0.09755974
183	0xbe5efe2d	-0.21776648
184	0xbe1e1ff9	-0.15441884
185	0xbdd3ac18	-0.10335559
186	0xbcdd6c49	-0.027029173
187	0x3ddbe5ca	0.10737188
188	0x3dda314b	0.10653933
189	0x3e68099c	0.22659916
190	0x3e0bcb73	0.13651828
191	0x3ed1cf3b	0.40978417
192	0x3f4e3205	0.80545074
193	0x3eb14346	0.34621638
194	0xbd9d1e17	-0.07671755
195	0xbf4f3231	-0.8093596
196	0xbdf7bafa	-0.1209621
197	0x3ffe4ab9	1.9866554
198	0x3e8ddb42	0.27706343
199	0xbd5c1d74	-0.053739026
200	0x3e85e1ff	0.26148984
201	0xbdc695c9	-0.09696538
202	0xbeab8539	-0.33500078
203	0x3dce5bc3	0.10076096
204	0x3be5cde0	0.0070130676
205	0x3e94421d	0.2895669
206	0x3e010fb5	0.12603648
207	0xbc849a13	-0.01618675
208	0x3dc3a42a	0.09552796
209	0xbd7e52ad	-0.062090565
210	0x3e2f0b53	0.17094164
211	0xbe794210	-0.24341607
212	0x3e807859	0.25091818
213	0xbe99f3da	-0.30068856
214	0xbc280274	-0.010254491
215	0x3dd2aa48	0.10286385
216	0x3e392fce	0.18084642
217	0xbe18ee47	-0.14934646
218	0x3f01efd0	0.5075655
219	0xbe6d4c34	-0.231736
220	0xbe0a1cc9	-0.13487543
221	0x3ec15e2d	0.37767163
222	0x3e925aad	0.28584805
223	0xb9ae470b	-0.00033240797
224	0x3da18514	0.07886711
225	0x3ec71db9	0.38889864
226	0x3e934347	0.28762266
227	0xbd1c34ba	-0.03813622
228	0xbeee1dd3	-0.4650713
229	0x3c4831b0	0.012218878
230	0x3f8796a1	1.0592843
231	0xbf178213	-0.5918285
232	0x3e0e4a19	0.13895454
233	0xbefcf3eb	-0.49404845
234	0x3e466b71	0.19376923
235	0xbc0cf3c9	-0.008603045
236	0xbdacfb66	-0.08446388
237	0xbf406f58	-0.751699
238	0x3e825cef	0.25461528
239	0xbe830a91	-0.25594
240	0xbe5e5313	-0.21711378
241	0xbddd45a6	-0.108043
242	0x3e70bdf5	0.23509963
243	0xbe171f96	-0.14758143
244	0x3d013107	0.031540897
245	0x3e3439fd	0.17600246
246	0x3dd4b2e1	0.10385681
247	0x3e82e257	0.2556331
248	0xbe072d2d	-0.13200827
249	0x3e578dc0	0.21050167
250	0xbdda3e73	-0.106564425
251	0x3cf70918	0.030155703
252	0xbd5a94d5	-0.053364594
253	0xbe966536	-0.29374093
254	0xbe9e79ae	-0.3095221
255	0x3e3198b7	0.17343412

fc1.bias f4 [50]
0	0xbe44b0af	-0.19208024
1	0xbe99d869	-0.3004792
2	0xbecb5c38	-0.39718795
3	0xbed28523	-0.411172
4	0xbea0f0c6	-0.31433696
5	0xbf157f08	-0.5839696
6	0xbee22b76	-0.44173783
7	0xbeaa13be	-0.33218187
8	0xbc844d97	-0.016150279
9	0xbe77845c	-0.24171585
10	0xbf07d6b3	-0.5306198
11	0xbcbc6f54	-0.023002304
12	0x3e4f1bbc	0.20225424
13	0x3e1655f9	0.14681233
14	0x3e22a335	0.15882571
15	0xbf04539c	-0.5169008
16	0x3b1b6ede	0.0023717205
17	0xbde57944	-0.1120477
18	0x3df315f1	0.11869419
19	0x3f19860c	0.59970164
20	0xbedd716c	-0.43250597
21	0xbe05449a	-0.1301445
22	0xbe755445	-0.23957928
23	0xbdf3bd5b	-0.11901351
24	0x3ec978a2	0.39349848
25	0xbcd2c41d	-0.02572828
26	0xbe64a902	-0.22330096
27	0xbddb6854	-0.107132584
28	0xbe4cba53	-0.19992952
29	0xbe529562	-0.20564798
30	0x3edf83d4	0.43655264
31	0xbd825a95	-0.063649334
32	0xbe118820	-0.14212084
33	0xbd92a5bb	-0.07160517
34	0xbef73242	-0.4828053
35	0xbf4ea33b	-0.8071782
36	0xbf1ddd44	-0.6166575
37	0xbd1935e1	-0.0374049
38	0xbf2d8c40	-0.6779213
39	0xbeddff02	-0.43358618
40	0xbe0f0e2d	-0.13970251
41	0xbdadc6fe	-0.084852204
42	0x3c2f69ac	0.0107063465
43	0xbea1cd3f	-0.31601903
44	0x3e803796	0.2504241
45	0xbd0664e4	-0.03281106
46	0x3e2c7bb2	0.16844061
47	0x3e89c73e	0.26909822
48	0xbe259a2b	-0.16172092
49	0x3e6f6973	0.2338007

fc2.weight f4 [100, 50]
0	0xbebdd014	-0.37072814
1	0x3dd58323	0.10425403
2	0x3d9fa7d5	0.07795683
3	0xbdcba632	-0.099438086
4	0xbd5af6bf	-0.05345797
5	0xbd452203	-0.04812814
6	0xbebcbd74	-0.3686329
7	0xbe4d4032	-0.2004402
8	0xbbea52f5	-0.0071510025
9	0xbe21f667	-0.15816651
10	0x3d718125	0.058961052
11	0xbdf597bc	-0.11991832
12	0xbe54d99e	-0.2078614
13	0xbca2927a	-0.019845236
14	0xbd645948	-0.055749208
15	0xbe0e74df	-0.1391177
16	0xbe2b5369	-0.16731037
17	0xbe44de83	-0.19225506
18	0xbd7fd19a	-0.06245575
19	0x3da52571	0.08063782
20	0xbeb98624	-0.36235154
21	0x3dec749a	0.115456775
22	0xbe4eae90	-0.20183778
23	0xbe2431db	-0.16034643
24	0x3ce55396	0.027993958
25	0x3ccb15cd	0.024790669
26	0xbe150cf3	-0.14555721
27	0x3e1fe57b	0.15614884
28	0xbe144183	-0.14478116
29	0xbe00ff9b	-0.12597506
30	0xbe2ece16	-0.17070803
31	0xbc012a2b	-0.007883589
32	0xbe0b0522	-0.13576177
33	0xbdf4675a	-0.11933775
34	0xbe019271	-0.12653519
35	0xbe8729f9	-0.2639921
36	0xbe05ac70	-0.13054061
37	0xbea6b76b	-0.32561812
38	0xbe501d3c	-0.20323652
39	0xbdc3e5ad	-0.095652916
40	0xbe8cba9e	-0.27486128
41	0xbd7c4dff	-0.06159782
42	0xbd68c64e	-0.056829743
43	0xbd56ce48	-0.05244282
44	0xbe718938	-0.23587501
45	0xbdc3beb1	-0.09557856
46	0xbe30ecd8	-0.17277849
47	0x3d910778	0.07081503
48	0xbe60e372	-0.21961764
49	0xbd087a11	-0.033319537
50	0xbed0aeec	-0.40758455
51	0x3d5cad16	0.053876005
52	0xbde50137	-0.11181872
53	0xbc8696a8	-0.01642926
54	0x3d9ea30f	0.07745945
55	0x3ca958bf	0.0206722
56	0xbdab60ce	-0.083680734
57	0xbda5ad42	-0.08089687
58	0x3d7ca323	0.061679017
59	0xbe2ef317	-0.17084919
60	0x3cfdede6	0.030997228
61	0xbd8ea05f	-0.06964182
62	0xbe5494a5	-0.20759828
63	0xbd944a52	-0.07240738
64	0xbe4eb0da	-0.20184651
65	0xbe5ec24f	-0.2175381
66	0xbd890dfa	-0.06692119
67	0xbe8b1d6a	-0.2717088
68	0xbe2434e4	-0.16035801
69	0x3cb7fdf6	0.022459965
70	0xbe375fac	-0.1790759
71	0x3da8e6c7	0.08247142
72	0xbe41fc4a	-0.18943897
73	0x3c641a3f	0.013922273
74	0xbdc52e41	-0.09627963
75	0xbcfca6b7	-0.030841215
76	0xbe213063	-0.15741114
77	0x3d28f342	0.041247614
78	0xbda4254e	-0.08014928
79	0x3e04fa91	0.12986208
80	0x3d080c6d	0.033214975
81	0x3db261e8	0.087100804
82	0xbe6fbc97	-0.23411785
83	0xbe14c569	-0.14528431
84	0xbd69d8a0	-0.057091355
85	0xbe46ee96	-0.19426951
86	0xbe388a5c	-0.1802153
87	0xbe75522b	-0.23957126
88	0xbe32b964	-0.17453533
89	0xbde76dfd	-0.113002755
90	0xbe30d1f1	-0.17267586
91	0xbddfcebe	-0.10928105
92	0xbc13c842	-0.009019913
93	0xbe1ab706	-0.1510888
94	0xbdf05e04	-0.11736682
95	0xbe7e5644	-0.24837595
96	0xbe7c3fb9	-0.24633683
97	0x3d5ba486	0.0536237
98	0xbe01bf4b	-0.12670629
99	0xbcffe99a	-0.03123932
100	0xbf5bbbe0	-0.8583355
101	0x3e0db3f0	0.13838172
102	0x3dcb72de	0.099340186
103	0x3e266c00	0.16252136
104	0x3dbfbd7a	0.09362312
105	0xbdb26d92	-0.08712305
106	0xbe5a9f7a	-0.21349898
107	0x3ebb57d2	0.3659044
108	0xbcfc7bd2	-0.03082076
109	0x3e279cc0	0.16368389
110	0xbe3e6341	-0.1859255
111	0xbe11c392	-0.1423476
112	0x3d82f4de	0.06394361
113	0x3e4463c7	0.19178687
114	0xbef1dd47	-0.47239134
115	0xbf3c9731	-0.736682
116	0xbdcdf95c	-0.10057327
117	0xbe8c24a6	-0.2737171
118	0xbed74627	-0.4204571
119	0xbedaa697	-0.42705223
120	0x3ea286b1	0.31743386
121	0xbf1f47d0	-0.6221895
122	0xbe010f69	-0.12603535
123	0xbe9b7924	-0.3036586
124	0x3f0e21a7	0.555201
125	0x3ef5464c	0.47905195
126	0x3c221aab	0.009894053
127	0xbe7ef1fc	-0.24896997
128	0x3e6d1bc2	0.2315512
129	0x3e942b08	0.2893908
130	0xbeb3b6a7	-0.3510029
131	0x3de0a8a1	0.109696634
132	0x3e4695d0	0.19393086
133	0xbe4856e9	-0.19564404
134	0xbe48fde2	-0.19628099
135	0x3ec35286	0.38148898
136	0x3e275e4e	0.16344568
137	0x3e59ac5c	0.21257156
138	0x3c0c0ec8	0.008548446
139	0xbec55d5f	-0.385478
140	0xbe409e04	-0.18810278
141	0xbe8db508	-0.27677178
142	0x3ea07f2a	0.31347018
143	0x3f36ecfa	0.7145535
144	0xbe59fe93	-0.21288519
145	0xbe1238b9	-0.1427945
146	0xbf1af26f	-0.60526174
147	0xbf7801d3	-0.96877784
148	0xbef0f0ee	-0.47058815
149	0x3ec1ab15	0.37825838
150	0x3f48eda9	0.7848764
151	0xbe818f9d	-0.2530488
152	0x3e52178b	0.20516793
153	0x3eedf45e	0.464755
154	0x3dc3bdd1	0.09557689
155	0xbd9c041d	-0.07617972
156	0x3e12a755	0.14321645
157	0xbe3d07a1	-0.18459941
158	0xbf0c8504	-0.54890466
159	0x3e07cf60	0.13262701
160	0x3dc27538	0.09495014
161	0x3ec83407	0.39102194
162	0xbdf9418f	-0.121707074
163	0xbe71db74	-0.23618871
164	0xbf0a241f	-0.53961366
165	0x3da4669c	0.08027384
166	0xbec61260	-0.38685894
167	0x3d0e1559	0.034688327
168	0xbf22e254	-0.636266
169	0x3dac6024	0.08416775
170	0x3d4ec194	0.05047758
171	0xbeb58a26	-0.3545696
172	0x3e7c5397	0.24641262
173	0x3ea35c0c	0.31906164
174	0xbee4d042	-0.44690138
175	0xbeae35a3	-0.34025297
176	0x3dedec63	0.11617353
177	0xbdd61848	-0.1045385
178	0xbe85f807	-0.26165792
179	0x3d2dc605	0.042425174
180	0x3eed9f4c	0.46410596
181	0xbee35b00	-0.44405365
182	0x3cf04f4a	0.029334683
183	0xbf1483c3	-0.5801355
184	0x3e18dbf1	0.14927651
185	0x3d2ac795	0.041694243
186	0x3da66ee5	0.0812662
187	0xbe6d8232	-0.23194197
188	0xbdeec5d9	-0.1165883
189	0xbea40ba6	-0.32040137
190	0xbe828ae7	-0.254966
191	0x3e3b2a61	0.18277885
192	0x3e9513bb	0.29116616
193	0xbf210adf	-0.6290721
194	0x3db5b8d1	0.088731416
195	0xbf661b56	-0.8988546
196	0x3f15ff4a	0.58592665
197	0x3e9eb37e	0.30996317
198	0x3d33e0c0	0.04391551
199	0x3d82ff01	0.063962944
200	0x3f020160	0.5078335
201	0xbe7c1898	-0.24618757
202	0x3dc52024	0.09625271
203	0x3ecdc4c3	0.4018918
204	0xbe72c86f	-0.23709272
205	0x3f1d6efb	0.6149747
206	0xbe1aaf2f	-0.1510589
207	0x3ec2b77c	0.38030612
208	0x3f31f7fb	0.69519013
209	0xbe6abe30	-0.22924113
210	0x3eb371e5	0.35047832
211	0xbe61f4d1	-0.22066046
212	0x3e0e754d	0.13911934
213	0x3dc230a2	0.09481932
214	0xbe882c2d	-0.26596203
215	0x3eadb065	0.3392364
216	0xbea179f4	-0.31538355
217	0x3f4e5880	0.8060379
218	0x3ef7f096	0.4842574
219	0x3e5642d2	0.20923927
220	0x3da94984	0.08265975
221	0x3ef90ff6	0.4864499
222	0xbe8a680f	-0.27032515
223	0x3e717362	0.23579171
224	0xbd57a925	-0.052651543
225	0xbba850db	-0.005136592
226	0xbf1274f3	-0.572097
227	0xbd6b0f0b	-0.057387393
228	0x3dcda21b	0.10040685
229	0xbf408399	-0.752008
230	0xbdfc4ef9	-0.1231975
231	0x3ea47a4a	0.3212455
232	0x3d8aa2ad	0.06769309
233	0x3e4716c0	0.19442272
234	0xbe1f3d58	-0.15550745
235	0x3e0691f1	0.1314161
236	0xbe25fc6d	-0.16209574
237	0xbe5aa4f6	-0.2135199
238	0x3e2cc87c	0.16873354
239	0xbe52056e	-0.20509884
240	0xbe2129de	-0.15738627
241	0x3f079e9e	0.52976406
242	0xbe40279f	-0.18765114
243	0xbd910834	-0.07081643
244	0x3e1319be	0.14365289
245	0x3e87edfa	0.2654875
246	0xbe1d3a9a	-0.15354386
247	0xba933977	-0.0011232336
248	0x3e038369	0.12843098
249	0x3e3d11b1	0.1846378
250	0xbe9ef561	-0.31046584
251	0xbe198e89	-0.14995779
252	0x3ed2e819	0.411927
253	0x3e0a04fb	0.13478462
254	0xbe320c42	-0.17387488
255	0x3ed24c64	0.41073906

fc2.bias f4 [100]
0	0xbe98d576	-0.29850358
1	0xbe5ae2d9	-0.21375598
2	0xbe90fa3c	-0.28315914
3	0xbe757a3b	-0.23972408
4	0x3e4c731e	0.19965789
5	0x3f1e1240	0.617466
6	0xbd74060c	-0.05957608
7	0xbe4c41ed	-0.19947024
8	0x3e56ef4f	0.20989726
9	0xbec2fca4	-0.38083375
10	0xbd0d326d	-0.034471918
11	0x3e131eb1	0.14367177
12	0xbdf3e515	-0.11908928
13	0xbe6bb464	-0.23018032
14	0x3d476746	0.048682474
15	0xbe1617b5	-0.14657481
16	0xbed24674	-0.41069376
17	0xbf4d3d10	-0.801713
18	0xbd2c3236	-0.042040072
19	0x3e1adb58	0.15122736
20	0xbebdeb49	-0.3709357
21	0xbe663268	-0.22480166
22	0x3c93daef	0.018048732
23	0xbdb6199e	-0.08891605
24	0x3e487553	0.19576006
25	0xbdb7457c	-0.089488
26	0x3db29b22	0.087209955
27	0x3e22b829	0.15890564
28	0xbe70bc1b	-0.23509257
29	0x3d065469	0.032795344
30	0x3d16d680	0.036825657
31	0x3e848caf	0.25888583
32	0xbc01468f	-0.007890358
33	0x3e32f229	0.1747519
34	0x3e8b0eed	0.27159825
35	0x3e0fc0e3	0.14038424
36	0x3e5142af	0.20435594
37	0xbebbaf37	-0.36657116
38	0xbe81bab8	-0.25337768
39	0x3e60fbe7	0.21971093
40	0xbe264665	-0.16237791
41	0xbe46fc15	-0.19432099
42	0xbea05a59	-0.3131893
43	0x3eece0a8	0.4626515
44	0x3e5cc8fb	0.21561043
45	0x3db10711	0.08643926
46	0xbe801168	-0.2501328
47	0xbd984826	-0.07435636
48	0xbe20713e	-0.15668198
49	0x3ecf25fe	0.40458673
50	0xbdb4965b	-0.088177405
51	0x3ecf09ac	0.40437067
52	0xbe6571d5	-0.22406705
53	0xbe06ca33	-0.1316307
54	0x3e919a18	0.28437877
55	0xbd055928	-0.03255573
56	0xbeb62b10	-0.3557973
57	0xbf076aa7	-0.52897114
58	0xbdc07e03	-0.09399035
59	0x3e45402f	0.19262765
60	0x3ea51080	0.3223915
61	0xbe5c97ee	-0.21542332
62	0x3e94fb58	0.2909801
63	0x3f0502c9	0.51957375
64	0xbeeaf18f	-0.4588742
65	0xbde727f0	-0.11286914
66	0x3e8d82d9	0.2763889
67	0x3ed65fcb	0.4186996
68	0xbeaccd78	-0.3375051
69	0xbe0dcc02	-0.13847354
70	0x3d9a63e5	0.075385846
71	0xbeae49f5	-0.340408
72	0xbea31292	-0.31850106
73	0x3e609c97	0.21934734
74	0xbe3d5f94	-0.18493491
75	0xbd8c4c46	-0.068504855
76	0xbe3edbc9	-0.18638529
77	0xbf310046	-0.6914104
78	0xbdb8c0d3	-0.09021153
79	0xbc91d3e7	-0.017801238
80	0xbe97124a	-0.2950614
81	0x3e8e7a40	0.27827644
82	0xbee119f2	-0.43965107
83	0x3ea15aa7	0.31514475
84	0xbdc372d7	-0.09543388
85	0x3f28b4f4	0.6590111
86	0xbf2ee18c	-0.6831291
87	0xbe428977	-0.18997751
88	0xbf06c41b	-0.52642983
89	0xbbe1a948	-0.006886635
90	0xbdfdbf23	-0.12389972
91	0xbe69275a	-0.22768918
92	0x3dd34101	0.10315133
93	0x3e3f2eef	0.18670247
94	0xbedbda92	-0.42940193
95	0xba630fa0	-0.0008661691
96	0x3e3cde91	0.18444277
97	0xbe8726d7	-0.2639682
98	0xbe31ae99	-0.1735176
99	0xbe4abe86	-0.19799241

fc3.weight f4 [200, 100]
0	0x3b4f5f25	0.0031642404
1	0x3cd21cc8	0.02564849
2	0x3eb2634f	0.3484139
3	0xbd88e0e6	-0.06683521
4	0xbf835d3b	-1.0262827
5	0xbee7c10b	-0.45264468
6	0xbc3cce24	-0.011523757
7	0xbd83b9a3	-0.06431892
8	0x3dc49b4d	0.09599934
9	0x3c9a9c85	0.018873462
10	0x3df3b6a8	0.11900073
11	0xbdd865d9	-0.10566301
12	0xbc5d4529	-0.013505259
13	0xbe1a100e	-0.15045187
14	0xbea1a0ad	-0.31567898
15	0x3ea6a94c	0.32551038
16	0x3ef913ca	0.4864791
17	0xbe9cc359	-0.30617788
18	0xbe086167	-0.13318406
19	0xbedd0ba5	-0.43172947
20	0xbebf455f	-0.37357613
21	0x3ec692cc	0.38783872
22	0xba83025c	-0.000999521
23	0xbebdded9	-0.37084082
24	0xbe50b373	-0.20380954
25	0x3ef49aa2	0.47774225
26	0xbc78cc2f	-0.0151854
27	0xbf1fb689	-0.623879
28	0x3e665b72	0.22495821
29	0xbd07392c	-0.033013508
30	0xbf7f04f7	-0.9961695
31	0xbe1b506a	-0.15167394
32	0x3cf1364d	0.029444838
33	0x3bb44185	0.0055009746
34	0xbf09c1e7	-0.53811496
35	0x3dee2ac4	0.11629251
36	0x3e878ef8	0.26476264
37	0xbee2b005	-0.44274917
38	0xbd958abc	-0.07301852
39	0xbec602a6	-0.38673896
40	0x3dd2431a	0.10266705
41	0x3e968f17	0.29406044
42	0xbde24770	-0.11048782
43	0xbe56060c	-0.20900744
44	0xbf483e6e	-0.7822026
45	0x3ee759c7	0.45185682
46	0x3e374a02	0.17899325
47	0x3d9b6f9e	0.07589649
48	0xbf09a9c5	-0.5377467
49	0x3babf619	0.005247843
50	0xbedabf48	-0.4272406
51	0xbe1f5de7	-0.15563165
52	0x3eeda54c	0.46415174
53	0xbe855869	-0.26044014
54	0x3d806db3	0.062709235
55	0xbd2d0225	-0.042238373
56	0x3eb38e78	0.35069633
57	0xbd851f5d	-0.06500123
58	0x3e4440a9	0.19165291
59	0xbed1b06e	-0.40954918
60	0xbe0775e4	-0.13228565
61	0x3f0911f4	0.5354302
62	0xbc96aa1d	-0.018391663
63	0xbe42dd04	-0.19029623
64	0x3e3ed9f6	0.18637833
65	0xbdb90c46	-0.09035544
66	0xbf09ede9	-0.5387865
67	0x3e7803c2	0.24220183
68	0xbd65f79e	-0.05614435
69	0xbddb7bed	-0.10716996
70	0xbe8b7e79	-0.27244928
71	0xbf02f01f	-0.51147646
72	0x3efeb14c	0.49744642
73	0xbe134660	-0.14382315
74	0xbdabd8d5	-0.08390967
75	0x3e2ba592	0.16762379
76	0xbcfb83a4	-0.03070242
77	0x3dcac1ea	0.099002674
78	0x3e74843b	0.23878567
79	0xbeb958d5	-0.36200586
80	0xbe992cf0	-0.29917097
81	0x3d0a02f2	0.033694215
82	0x3f173791	0.5906916
83	0x3e9fd5c2	0.31217772
84	0xbde750b2	-0.11294688
85	0x3da81c58	0.08208531
86	0x3f200bef	0.6251821
87	0xbb3ccb63	-0.0028807751
88	0x3e4c9912	0.19980267
89	0x3da1c608	0.078990996
90	0x3edcb45f	0.43106362
91	0xbf853630	-1.0407162
92	0xbe5363ab	-0.20643489
93	0xbde2ab97	-0.110678844
94	0x3e4e435f	0.20142888
95	0xbe44f64a	-0.19234577
96	0xbdfb1beb	-0.12261184
97	0x3e018ffd	0.12652583
98	0x3f0653b4	0.5247147
99	0x3f0ad398	0.54229116
100	0xbd86bce9	-0.065790005
101	0x3bccea89	0.0062535447
102	0xbeaaa7fd	-0.3333129
103	0xbe183f87	-0.14867984
104	0xbf20344c	-0.625798
105	0xbec74bc5	-0.38924995
106	0x3c07bcef	0.008284791
107	0x3c4c07dd	0.012453047
108	0xbe19a3d6	-0.15003905
109	0xbe685cc6	-0.2269164
110	0x3d5bc517	0.053654756
111	0xbe1100e8	-0.14160502
112	0x3d292bdd	0.041301597
113	0xbf0ca671	-0.5494147
114	0xbe4894df	-0.1958804
115	0xbe8ea3ac	-0.27859247
116	0xbdc15e6f	-0.0944184
117	0x3e3d633f	0.1849489
118	0xbf24eb39	-0.6442142
119	0xbe23e901	-0.16006853
120	0xbd113465	-0.035450358
121	0xbe06b9c5	-0.13156803
122	0x3d41246a	0.047153868
123	0x3ecfa6ce	0.4055695
124	0x3b59fec6	0.003326343
125	0x3ec15a14	0.37764037
126	0x3d8624c3	0.065499805
127	0xbe69bf4c	-0.2282688
128	0x3dab3ed3	0.08361592
129	0xbf2d4f0a	-0.6769873
130	0xbf366731	-0.7125121
131	0xbe6a889f	-0.2290368
132	0xbcd50583	-0.026003605
133	0xbf1e31b0	-0.6179457
134	0xbe8029da	-0.2503193
135	0x3c42899d	0.01187363
136	0x3d9742d0	0.0738579
137	0xbcfbdee0	-0.030745924
138	0x3e26e725	0.16299112
139	0xbedecb75	-0.435146
140	0x3da9458b	0.082652174
141	0xbd95b07f	-0.073090546
142	0xbf5cbcb1	-0.8622542
143	0xbefd61b0	-0.49488592
144	0xbf2336cf	-0.63755506
145	0x3e41411d	0.18872495
146	0xbc5cef4c	-0.013484787
147	0x3d320d90	0.043469965
148	0x3de083fa	0.109626725
149	0xbe378b9e	-0.17924353
150	0xbe55c0b1	-0.20874287
151	0xbe8e1fc5	-0.27758613
152	0xbf1aec83	-0.6051714
153	0xbe5babde	-0.21452281
154	0xbf769956	-0.9632772
155	0xbef798dc	-0.4835881
156	0xbe3274fe	-0.17427441
157	0xbd3fa951	-0.046792332
158	0x3db0134d	0.08597431
159	0xbf0d77b0	-0.55260754
160	0xbe060883	-0.13089184
161	0xbe8a8815	-0.27056947
162	0x3dad4794	0.08460918
163	0xbf3c8cab	-0.7365214
164	0xbe826e55	-0.25474802
165	0x3d87d16d	0.06631742
166	0x3e91d6f3	0.28484306
167	0x3e65f0c4	0.22455126
168	0x3d986211	0.0744058
169	0xbcace731	-0.021106334
170	0xbdd9d438	-0.10636181
171	0xbe573137	-0.21014868
172	0x3d0d1db1	0.034452144
173	0xbf46120c	-0.7737129
174	0xbe24f400	-0.16108704
175	0xbe57d427	-0.21077023
176	0xbca0243e	-0.019548532
177	0x3dd37f64	0.10327032
178	0xbea3fbc3	-0.32028016
179	0xbe6ea927	-0.23306714
180	0xbd20bfc0	-0.039245367
181	0xbd95aafc	-0.07308003
182	0xbc8c66a8	-0.017138794
183	0x3e672fd6	0.22576842
184	0x3e379183	0.17926602
185	0xbd686874	-0.05674024
186	0x3e4e1862	0.20126489
187	0x3bc07c54	0.005874196
188	0xbe569994	-0.20957023
189	0xbc07036b	-0.008240561
190	0x3d6393a1	0.05556071
191	0xbd5da8fa	-0.054116227
192	0xbce1abef	-0.027547805
193	0x3cd6f7ed	0.026241267
194	0xbdd080d7	-0.10180824
195	0xbd734b75	-0.059398133
196	0xbe240ff9	-0.16021718
197	0xbe336fa6	-0.17523059
198	0xbedb1edb	-0.42796978
199	0x3ddb1df1	0.1069907
200	0xbcfd7c39	-0.030943023
201	0x3e06102c	0.13092107
202	0x3d80b0e4	0.06283739
203	0xbdb14115	-0.086549915
204	0x3d3281de	0.043580882
205	0xbf271693	-0.6526882
206	0x3e0c75e0	0.1371684
207	0x3d8197b2	0.06327762
208	0x3e4ccbd3	0.19999628
209	0xbf0143c7	-0.50494045
210	0x3d8f8f0b	0.07009705
211	0xbe4d2f6b	-0.2003762
212	0x3bb84976	0.0056239916
213	0x3d6b689e	0.057472818
214	0x3deb29db	0.11482593
215	0xbce51652	-0.027964745
216	0xbe1daaef	-0.15397237
217	0x3e4e83f8	0.2016753
218	0xbd263aed	-0.04058354
219	0x3e8cd095	0.27502885
220	0xbeb612d3	-0.35561237
221	0x3f774701	0.9659272
222	0xbc9e7cf2	-0.019346688
223	0x3f02b1cf	0.51052564
224	0xbe87a70a	-0.26494628
225	0xbcfbf3bb	-0.030755868
226	0x3db21166	0.08694725
227	0xbd718e50	-0.05897361
228	0xbc02d8b9	-0.007986241
229	0x3e820900	0.2539749
230	0x3ed78ade	0.42098135
231	0xbeb34673	-0.35014686
232	0x3dae7052	0.08517517
233	0xbe8d3c08	-0.27584863
234	0xbf24334f	-0.6414079
235	0x3e60a5ad	0.219382
236	0xbdda4b0f	-0.106588475
237	0xbea82c91	-0.328465
238	0xbe2b5b1e	-0.16733977
239	0xbd9dd055	-0.07705752
240	0x3e01bad3	0.12668924
241	0x3ea41fbc	0.3205546
242	0x3eea1007	0.45715353
243	0xbd1d73a8	-0.038440377
244	0x3dbcc9db	0.092181884
245	0xbd8ed448	-0.06974083
246	0x3efdf4a9	0.49600723
247	0x3dc16693	0.094433926
248	0xbf3ba829	-0.7330347
249	0xbe7b7c0b	-0.24559037
250	0xbeaf62cc	-0.34255064
251	0xbef56ecc	-0.47936094
252	0x3d24ffac	0.04028289
253	0x3f26be8a	0.6513449
254	0xbebabf95	-0.3647429
255	0x3d7a5dd3	0.061124634

fc3.bias f4 [200]
0	0xbeb3a616	-0.3508765
1	0xbe685d25	-0.22691782
2	0xbf1575e7	-0.5838303
3	0x3eb1c583	0.34721002
4	0xbe89fd85	-0.26951233
5	0xbe22f2fd	-0.15913005
6	0xbf00e87b	-0.5035474
7	0xbedd6574	-0.43241465
8	0xbe1bfb6b	-0.15232627
9	0xbedf6ee3	-0.43639287
10	0xbe73c1c1	-0.2380438
11	0xbe029056	-0.12750372
12	0xbedf0e8b	-0.43565783
13	0x3c275a99	0.010214471
14	0xbec04d4c	-0.37558973
15	0xbf19ed27	-0.6012749
16	0xbd0fd670	-0.035116613
17	0xbee3d6e8	-0.44499898
18	0xbea7b26b	-0.3275331
19	0xbf713a30	-0.9422941
20	0xbe85f23d	-0.26161376
21	0x3e07a742	0.13247398
22	0xbd0ede98	-0.03488025
23	0xbf031bb3	-0.5121414
24	0xbe8f26ee	-0.27959388
25	0xbee8a415	-0.45437685
26	0x3bcab8f2	0.006186598
27	0xbe0992a9	-0.13434853
28	0xbe009855	-0.1255811
29	0xbecbb00f	-0.3978276
30	0xbe881485	-0.26578155
31	0xbe3ba7f2	-0.18325785
32	0xbd908f21	-0.0705855
33	0x3c8ff4db	0.01757281
34	0xbf791012	-0.97290146
35	0xbe7fba1a	-0.24973336
36	0xbf293f63	-0.66112345
37	0xbdef4d6a	-0.116846874
38	0xbf1c7c9b	-0.6112763
39	0xbef0c26d	-0.47023335
40	0x3dc75c5d	0.09734414
41	0xbf0e3416	-0.55548227
42	0xbef36932	-0.47541195
43	0xbe4b244d	-0.19838066
44	0xbf3e953d	-0.7444647
45	0x3db20858	0.08692998
46	0xbd6634c5	-0.05620267
47	0x3dbf55e4	0.09342554
48	0xbec37012	-0.3817144
49	0xbec3eb16	-0.38265294
50	0xbf071c58	-0.52777624
51	0xbf4bb8e4	-0.79578996
52	0xbdc05760	-0.093916655
53	0xbeef475b	-0.46734127
54	0xbef8f0a6	-0.486211
55	0xbf0b2784	-0.5435717
56	0xbe1a821d	-0.15088697
57	0xbe261b48	-0.16221344
58	0xbd446e97	-0.04795703
59	0xbef71687	-0.48259374
60	0xbe88709f	-0.26648423
61	0xbefdc06b	-0.49560866
62	0xbe44ff6f	-0.19238065
63	0xbf1c92cf	-0.6116151
64	0xbe8028ac	-0.2503103
65	0xbee7f1d8	-0.453017
66	0x3e049907	0.12949
67	0xbee425d6	-0.44560117
68	0xbe98248d	-0.29715386
69	0xbdddf597	-0.10837858
70	0xbf0928fa	-0.5357815
71	0xbe792834	-0.24331743
72	0xbea66eb7	-0.32506344
73	0xbe58afcd	-0.21160813
74	0xbebcbaac	-0.3686117
75	0xbdef74c0	-0.1169219
76	0xbe4dbfe9	-0.20092739
77	0xbe20ed29	-0.1571547
78	0xbeb679d2	-0.35639817
79	0xbb1d279f	-0.0023979915
80	0x3e9adf14	0.3024832
81	0xbed39c4c	-0.41330183
82	0xbf16fe4f	-0.58981794
83	0x3ddd4b84	0.10805419
84	0xbe71cdad	-0.23613615
85	0x3e74576b	0.23861472
86	0xbeae0d62	-0.33994585
87	0x3ce30ca8	0.027715996
88	0x3ef36bb6	0.47543114
89	0xbdd76043	-0.10516407
90	0xbed29cc8	-0.4113524
91	0xbe847ccc	-0.25876462
92	0xbf11c640	-0.5694313
93	0xbf131a3c	-0.57461905
94	0xbed4253d	-0.4143466
95	0x3c2c0284	0.010498647
96	0xbea784d6	-0.32718533
97	0x3ca1b7ce	0.019740965
98	0xbd0ebb91	-0.034846846
99	0xbe9f3a7c	-0.31099308
100	0x3d786756	0.060645424
101	0xbee58d1c	-0.4483422
102	0xbde888ac	-0.11354193
103	0xbec1a24a	-0.3781913
104	0xbf6b90c7	-0.9201779
105	0x3e00ff7b	0.12597458
106	0xbd4e1f75	-0.05032297
107	0xbea7f002	-0.328003
108	0xbedda716	-0.4329154
109	0xbefa7ff6	-0.4892575
110	0x3e82ff6c	0.25585496
111	0xbefd4d35	-0.49472967
112	0xbea44759	-0.32085684
113	0xbed2e02c	-0.41186655
114	0xbeaa85a2	-0.3330508
115	0x3e7a8164	0.24463421
116	0xbe3c722b	-0.18402927
117	0x3d2f0320	0.04272759
118	0xbf0c7407	-0.54864544
119	0xbf29c781	-0.66320044
120	0xbe27b2bb	-0.16376774
121	0xbe71c5e3	-0.23610644
122	0xbf296824	-0.6617453
123	0xbe48d842	-0.19613746
124	0xbecdbb4c	-0.4018196
125	0xbe8c3424	-0.2738353
126	0xbe64daf9	-0.22349156
127	0xbd19d4fa	-0.037556626
128	0xbf1bbf3a	-0.60838664
129	0xbeb38a9f	-0.35066697
130	0x3dd050ae	0.101716384
131	0xbf0020b4	-0.500499
132	0xbe327413	-0.17427091
133	0x3e437570	0.19087768
134	0xbe8be230	-0.27321005
135	0xbef86682	-0.48515707
136	0xbf0af539	-0.5428043
137	0xbf045008	-0.5168462
138	0xbdab4a46	-0.08363776
139	0xbed36339	-0.41286638
140	0xbe40fc40	-0.18846226
141	0xbec1729c	-0.37782753
142	0xbed4b72e	-0.41546005
143	0x3dac90d6	0.08426063
144	0x3d3efa1c	0.04662524
145	0xbe5c7f69	-0.21532978
146	0xbf12a542	-0.57283413
147	0x3e5c2563	0.21498637
148	0xbd622a62	-0.0552162
149	0xbf33be0d	-0.7021187
150	0xbe8e90b3	-0.27844772
151	0xbf4f2485	-0.809151
152	0xbeac2371	-0.3362079
153	0xbdb2e60b	-0.087352835
154	0xbe7fc4f5	-0.24977477
155	0xbf599477	-0.84992164
156	0xbe818a04	-0.2530061
157	0xbf36cb5d	-0.7140406
158	0xbf0a8f20	-0.5412464
159	0xbf12a51e	-0.572832
160	0xbeef6101	-0.46753696
161	0xbee6458e	-0.4497494
162	0xbe970dc5	-0.29502693
163	0x3b3167d2	0.0027069938
164	0xbf01a42d	-0.5064114
165	0x3e3b65d0	0.18300557
166	0xbcb3c234	-0.02194319
167	0xbef454e5	-0.4772102
168	0xbd80a26d	-0.0628098
169	0x3e821fd1	0.254149
170	0xbce34302	-0.027741913
171	0xbe9456cf	-0.2897248
172	0xbe7562d7	-0.23963486
173	0x3d5dd006	0.054153465
174	0xbe9a5426	-0.30142325
175	0xbf096837	-0.53674644
176	0xbe6167fa	-0.2201232
177	0x3c2106c6	0.009828275
178	0xbf2ad078	-0.6672435
179	0xbe5103ca	-0.20411602
180	0x3e98145a	0.29703027
181	0xbc884e19	-0.016638802
182	0xbece44d5	-0.4028689
183	0xbedfe0fd	-0.4372634
184	0xbf2b6f74	-0.6696694
185	0xbe841bb9	-0.258024
186	0xbf1158d4	-0.56776166
187	0xbea291bf	-0.3175182
188	0xbede7ad3	-0.43453082
189	0xbe4761c6	-0.19470891
190	0xbeabcd73	-0.33555183
191	0x3dede3ff	0.116157524
192	0xbeed046b	-0.46292433
193	0xbf1f6d2c	-0.6227596
194	0xbf196dbe	-0.5993308
195	0xbedf5ba3	-0.436246
196	0xbf1fad5d	-0.62373906
197	0xbe2343e7	-0.15943871
198	0x3c90ba6f	0.017667023
199	0xbee29215	-0.44252077

fc4.weight f4 [4, 200]
0	0xbd94fce0	-0.072747946
1	0xbe401ad0	-0.18760228
2	0xbdcc172a	-0.09965356
3	0xbe260270	-0.16211867
4	0x3c90c375	0.017671326
5	0x3eaaac24	0.33334458
6	0x3e0f684a	0.14004627
7	0x3d9686eb	0.07349952
8	0x3d824473	0.06360712
9	0xbe8237f6	-0.2543332
10	0x3e160705	0.14651115
11	0x3f079d78	0.52974653
12	0xbd99d56f	-0.07511412
13	0x3df4722b	0.11935838
14	0xbdc30be5	-0.09523753
15	0xbd7dd81c	-0.061973676
16	0x3d882583	0.0664778
17	0x3b84fdc8	0.0040585734
18	0xbeb516c9	-0.35368946
19	0xbeb9aa9c	-0.36262977
20	0xbed6560b	-0.4186252
21	0xbeaad3ef	-0.33364818
22	0xbe3fb2d6	-0.18720564
23	0xbd460c87	-0.04835179
24	0x3e877f26	0.26464194
25	0x3ea93dd7	0.33054993
26	0xbdd3334b	-0.10312518
27	0x3b140224	0.0022584284
28	0xbe8933cd	-0.26797333
29	0xbeb063b9	-0.34451082
30	0xbf0f5243	-0.55984896
31	0xbe3db516	-0.1852611
32	0x3da70b4d	0.08156452
33	0x3d8c11e5	0.068393506
34	0xbd1f5a2d	-0.038904358
35	0xbdfa27f2	-0.1221465
36	0x3e9526da	0.29131204
37	0xbe7b96e2	-0.24569276
38	0xbdad08ea	-0.08448966
39	0xbd4ef82c	-0.050529644
40	0xbe777d48	-0.24168885
41	0x3d38afc2	0.04508949
42	0xbc75ba21	-0.01499799
43	0x3cea8e3a	0.028632272
44	0x3d769b6e	0.060206823
45	0xbe64cf1e	-0.22344634
46	0xbd14c504	-0.0363207
47	0x3d8afcea	0.06786521
48	0x3e5a0123	0.21289496
49	0xbee86222	-0.4538737
50	0xbe251213	-0.16120176
51	0xbede7801	-0.4345093
52	0x3d16544d	0.03670149
53	0xbdf7f78a	-0.12107761
54	0x3ebeeed6	0.37291592
55	0xbd67aa07	-0.056558635
56	0x3f14ad9d	0.5807741
57	0xbe142be4	-0.14469868
58	0x3d45b56a	0.048268713
59	0xbe06c316	-0.13160357
60	0xbde9f128	-0.1142295
61	0xbe14415a	-0.14478055
62	0x3dcdca7a	0.10048385
63	0xbe9ee4f1	-0.31034043
64	0x3e5c91e4	0.21540028
65	0xbf3b581d	-0.73181325
66	0x3d4d24af	0.050083812
67	0xbe892556	-0.26786298
68	0xbb0af042	-0.0021200334
69	0x3d131873	0.03591199
70	0x3f300214	0.6875317
71	0x3ef1d692	0.47234017
72	0xbd8c061e	-0.06837104
73	0xbef6a428	-0.48172116
74	0xbdd205b0	-0.10254991
75	0x3edde611	0.4333959
76	0x3da812aa	0.08206685
77	0xbf30e319	-0.69096524
78	0xbef602ef	-0.48049113
79	0xbe02a7fd	-0.12759395
80	0xbe9ba2c0	-0.30397606
81	0xbf2ca9ee	-0.6744679
82	0x3e6ee3f9	0.23329152
83	0xbed55f96	-0.4167449
84	0x3f8521c6	1.0400932
85	0xbd1a3e8d	-0.03765731
86	0xbee32dc6	-0.4437086
87	0xbd06a7c4	-0.032874838
88	0xbf50ae19	-0.8151565
89	0xbf25c76b	-0.6475741
90	0x3df35c5f	0.11882853
91	0xbc87c5bc	-0.01657378
92	0xbe7dac32	-0.24772719
93	0x3d905a46	0.07048468
94	0x3c18495f	0.009294837
95	0x3d587f4a	0.052855767
96	0x3e17bbbe	0.14817712
97	0xbf1b787f	-0.6073074
98	0x3f14eb05	0.5817111
99	0xbe3031a1	-0.17206432
100	0xbd91c8fd	-0.071184136
101	0x3d9eed3c	0.077600926
102	0xbc5f14fb	-0.013615842
103	0xbba94a83	-0.005166353
104	0xbd2caed1	-0.042158905
105	0xbe9668f5	-0.2937695
106	0x3d5fc566	0.054631613
107	0xbeac3671	-0.33635285
108	0x3e217a65	0.15769346
109	0x3eac474a	0.3364814
110	0x3e8ff239	0.2811449
111	0x3ee20bed	0.44149724
112	0xbf05d0d6	-0.52271783
113	0x3f0e5c33	0.55609435
114	0x3dec6052	0.11541809
115	0x3d00969b	0.03139363
116	0x3b92c155	0.0044786134
117	0xbe0ee9eb	-0.1395642
118	0x3dd360f8	0.1032123
119	0x3d7432c7	0.059618738
120	0x3dca745d	0.09885476
121	0x3ea6e00a	0.32592803
122	0xbedb98f2	-0.42890126
123	0xbec00140	-0.37500954
124	0xbe3c100c	-0.18365496
125	0x3c600458	0.013672911
126	0x3eec3e2f	0.46141192
127	0xbe9e4665	-0.30913082
128	0xbc9459af	-0.01810917
129	0xbe995fc7	-0.29955885
130	0x3e1355c9	0.14388193
131	0x3e8a5a6b	0.27022108
132	0x3caa6882	0.020801786
133	0xbe1e32dd	-0.1544909
134	0x3e5fe7a6	0.2186571
135	0xbebe4c79	-0.3716772
136	0x3e3203d7	0.17384277
137	0xbc0740d3	-0.008255201
138	0xbe48964f	-0.19588588
139	0xbd6f990a	-0.05849556
140	0x3e4d1778	0.20028484
141	0xbe0ce9fa	-0.1376113
142	0x3ed0f5d7	0.4081256
143	0xbd08378d	-0.033256102
144	0x3f00b967	0.502829
145	0xbf0aee4f	-0.5426988
146	0x3f262d1d	0.6491259
147	0xbdd4fabe	-0.10399388
148	0x3d497e7e	0.049192898
149	0x3e0192af	0.12653612
150	0x3e1e06b0	0.15432239
151	0x3e82c17c	0.25538242
152	0x3ec5f290	0.38661623
153	0x3e948153	0.29004917
154	0xbdd2b906	-0.10289197
155	0xbdaf7371	-0.085669406
156	0x3c39ee63	0.01134834
157	0x3d24f86a	0.04027597
158	0xbec7108a	-0.38879806
159	0x3d327959	0.043572757
160	0x3ea46495	0.32107988
161	0xbde73e2c	-0.11291155
162	0xbedfbb48	-0.43697572
163	0x3db8de74	0.090268046
164	0x3eaf0369	0.3418229
165	0x3eb405f4	0.35160792
166	0x3f4e8b8a	0.8068167
167	0xbe325c5e	-0.17418048
168	0xbf2ae316	-0.66752756
169	0xbe17ca8a	-0.14823356
170	0x3e7ccb14	0.24686843
171	0x3e44de05	0.19225319
172	0x3e97d08f	0.29651305
173	0xbf2b8c91	-0.6701136
174	0x3ee96219	0.45582655
175	0xbe5b8d3a	-0.21440592
176	0xbe2e5152	-0.17023209
177	0xbf208f1a	-0.62718356
178	0x3d8306ce	0.06397782
179	0x3f214ac0	0.63004684
180	0xbe75fa79	-0.24021329
181	0xbe50e8cb	-0.20401303
182	0xbe1da814	-0.15396148
183	0xbea81081	-0.3282509
184	0x3e1c9344	0.15290552
185	0x3c8f486a	0.017490584
186	0xbe20334a	-0.15644565
187	0x3e4dc3e1	0.20094253
188	0x3f1ab1f2	0.60427773
189	0x3e214c54	0.15751773
190	0x3e2258c8	0.1585418
191	0xbd6621f2	-0.056184717
192	0x3e79dca0	0.24400568
193	0xbd1696a1	-0.036764745
194	0x3f8167d0	1.0109806
195	0x3f2417ce	0.64098823
196	0x399fb4df	0.00030461603
197	0xbb8f1ab3	-0.0043671965
198	0xbe92824a	-0.28615028
199	0xbe960d79	-0.29307154
200	0xbe9a6df1	-0.30162004
201	0x3e80e547	0.25174925
202	0x3dd5e6b3	0.10444393
203	0xbed15048	-0.40881562
204	0xbe3f4868	-0.18679965
205	0x3dcd1877	0.10014432
206	0x3ddebb35	0.10875551
207	0x3e796c80	0.24357796
208	0x3eefc99a	0.46833497
209	0x3c20f3d8	0.009823762
210	0xbea03ab1	-0.31294778
211	0xbdd046db	-0.101697646
212	0x3e7c9490	0.24666047
213	0x3d1760cc	0.036957547
214	0xbf2242f3	-0.63383406
215	0xbed79d06	-0.42111987
216	0xbd0d7135	-0.03453179
217	0x3df464dc	0.119333
218	0x3ea76bb0	0.32699347
219	0x3ed1b75f	0.40960214
220	0xbf2a4673	-0.66513747
221	0xbf2b78b7	-0.6698107
222	0xbe2a79bd	-0.16648002
223	0xbf3b870d	-0.73252946
224	0x3e191f9e	0.14953467
225	0x3e84a597	0.25907585
226	0x3dd8ad7c	0.105799645
227	0x3af6331d	0.0018783543
228	0x3ed06ea5	0.40709415
229	0xbc3a0085	-0.011352663
230	0x3e807cd3	0.25095233
231	0xbdbfe3cb	-0.0936962
232	0x3ef68db5	0.4815499
233	0x3cdc8a13	0.026921308
234	0xbdc0318b	-0.093844496
235	0x3d76ef07	0.060286548
236	0xbd1f0081	-0.03881884
237	0xbeb92e62	-0.361682
238	0xbdcbe541	-0.09955836
239	0x3e969ad4	0.29415
240	0x3ef4cb37	0.4781129
241	0xbdea0250	-0.11426222
242	0x3eecd199	0.4625366
243	0x3ee8ccb9	0.4546869
244	0xbf5011f8	-0.8127742
245	0x3ee16e57	0.44029495
246	0x3f203f50	0.6259661
247	0x3d2d6931	0.042336646
248	0x3d4774d5	0.048695404
249	0x3e3aea1d	0.1825337
250	0xbe519987	-0.20468722
251	0x3ec27f1d	0.37987605
252	0x3c5fe33e	0.013665019
253	0xbc10057e	-0.008790372
254	0x3f22abd3	0.6354343
255	0xbf2a0b59	-0.66423565

fc4.bias f4 [4]
0	0x3e3b86a1	0.18313076
1	0xbf1ee97b	-0.6207501
2	0x3a588920	0.00082601793
3	0xbd3a5b68	-0.045497328
